Models/DCGAN_generator.pt (torch, 699695 bytes, 15 tensors)

latent_to_features.0.weight f4 [1024, 128]
000000 6e 26 98 3d ad 80 d0 39 fb 7e dd 3c ce ab 60 3c
       0.07429205 0.00039768722 0.027038088 0.013712836
000010 4a a2 83 bd 7e 92 4e bc 99 de 65 bc 34 f5 29 bd
       -0.064274386 -0.012608169 -0.014030122 -0.04149361
000020 d0 9a c2 bd fd 64 40 bd 48 3b 89 bc b7 ba ce bb
       -0.095021844 -0.04697131 -0.0167519 -0.0063088792
000030 5f db b6 3b 12 e1 82 bd 66 a5 07 3d 7f c0 21 bd
       0.0055803503 -0.06390585 0.03311672 -0.03949022
000040 75 3c c1 3c 8a 7c d5 ba aa 8e 07 bd 72 fe 0b bc
       0.023588398 -0.0016287726 -0.03309504 -0.008544551
000050 3e b0 e0 3b 43 ae 07 bd 34 33 5d bd c6 d1 9a 3d
       0.006856947 -0.033125173 -0.05400391 0.07559542
000060 e3 54 24 3d f6 81 fd bc 68 21 86 bc 96 cc 94 bc
       0.040120017 -0.03094576 -0.016373351 -0.01816396
000070 c1 54 b5 3c 5f 07 0b bd d3 de ad 3d cf 00 88 bd
       0.02213514 -0.033942576 0.08489766 -0.06640779
000080 dc 16 b5 bc f9 02 ca 3c 6a 89 50 3d 6e ed 57 bc
       -0.022105627 0.02465962 0.0509123 -0.013179166
000090 12 2a ae bc d7 20 c1 bc c6 cd 2a bd dc 07 03 bd
       -0.021260295 -0.02357523 -0.041700147 -0.031989917
0000a0 c5 e3 56 bd 22 a4 5f 3d 95 25 80 3d 4b fb d8 3c
       -0.05246331 0.05459989 0.06257168 0.026487013
0000b0 0b 48 5f bd 03 68 82 bd c9 12 c7 3c 54 b4 04 3b
       -0.054512065 -0.06367495 0.02430095 0.0020249086
0000c0 2f 23 71 3d 2a 93 13 bd fe 61 e7 bc b2 09 02 be
       0.058871444 -0.03602902 -0.028244969 -0.12699011
0000d0 29 48 86 bc 3f a0 b6 bc b2 61 05 bd 67 6f 12 3d
       -0.01639183 -0.022293208 -0.032563873 0.035750773
0000e0 7b 1f 71 3c 09 41 a7 bc 04 1e 52 bd 41 a4 bb 3c
       0.014716978 -0.020416753 -0.051298156 0.02290547
0000f0 ea 6b 3d 3c cf 20 f4 ba 78 56 2d 3c 5e 08 ac bc
       0.011561373 -0.00186255 0.010579698 -0.021000084
000100 0b 2e 29 3c 5c b4 5c 3d 3a 97 2e bd 1c 43 42 bd
       0.010325919 0.05388294 -0.04262469 -0.04742728
000110 6e 55 42 bd e2 a1 90 3c 4d 8d 49 3c 37 6b de bc
       -0.047444753 0.017655317 0.012301755 -0.027150733
000120 9c ff 2b 3d c7 33 51 3d 46 97 7d 3d 86 3c 49 3c
       0.041991815 0.05107477 0.061911844 0.012282496
000130 ce 35 a0 bb d3 66 b8 3d 1e 89 17 bd 03 7f 08 3d
       -0.0048892265 0.09003987 -0.036996 0.033324253
000140 c6 25 25 bc 33 e1 93 bc b6 70 34 3d 25 c2 43 bc
       -0.010079807 -0.01805172 0.044052802 -0.011948143
000150 ec e5 0c 3d 8e 48 5f 3d a2 32 b1 3c f6 0f fb 3c
       0.034398958 0.054512553 0.021630589 0.03064726
000160 66 b5 65 bd 9b a0 d9 3d 5a 09 97 bc fc bb 6e 3d
       -0.0560812 0.10626336 -0.018437076 0.058284745
000170 88 c6 92 3c bf e4 54 bc 53 5d c4 bc 70 fc 2d 3c
       0.017916933 -0.01299399 -0.023970282 0.010619268
000180 0c e9 4b 3d 37 17 d7 bb ce 82 b2 bc ae 5e 85 3c
       0.049782798 -0.0065640467 -0.021790888 0.016280498
000190 b2 7a 73 3c 3d 45 9a bc 33 cc d8 3c 07 94 df 3c
       0.014860796 -0.018831844 0.026464557 0.027292265
0001a0 b2 c8 e7 bc 82 4a 8c bc 62 e7 28 3d 57 f6 5f 3c
       -0.028293941 -0.017125372 0.04123629 0.013669572
0001b0 21 f9 6e 3c 98 a4 96 39 48 48 a0 3d a9 a2 a7 3b
       0.014585764 0.0002873286 0.078262866 0.005115826
0001c0 e4 e4 9c bc cb 75 97 bd c7 51 1b bd 06 05 c0 3b
       -0.019152112 -0.07395514 -0.037919786 0.005859974
0001d0 a8 b2 8f 3a 5b bc 8c bc 74 43 b6 bc 1e 3f e0 bc
       0.0010963278 -0.017179659 -0.022248961 -0.027373847
0001e0 45 7f ed 3c 8d 62 4b bb 97 27 5a 3d 2f e4 cb bc
       0.02899135 -0.0031034083 0.053260412 -0.02488908
0001f0 f7 b1 8f 3c f7 ff 4e 3c fd ca 94 3c 8f a4 4e bc
       0.017540915 0.012634269 0.018163199 -0.012612476
000200 52 37 6e 3d 0f b9 8e 3d 30 fc 26 bc 4a 48 bb 3d
       0.058158226 0.06968891 -0.010191962 0.091446474
000210 b1 b8 18 3e 62 64 78 bd d8 9b 83 3c 55 14 de bc
       0.14914204 -0.060642608 0.016065523 -0.027109304
000220 e3 15 29 3e c3 b6 0b 3e a7 4f 8a 3d f0 1d fc 3d
       0.16512255 0.13643937 0.06753474 0.123103976
000230 7b 77 d4 3d a7 06 41 be 8c f0 24 3e 97 dc 80 bd
       0.103743516 -0.18850194 0.16107386 -0.06292074
000240 bd 0c b8 bd 66 3c 8a be 03 21 ba 3d e4 e8 ab 3c
       -0.08986805 -0.26999205 0.09088328 0.020985074
000250 d9 cd 7c 3d ab 9d 67 3b 73 98 52 bd 80 4c be bc
       0.06171975 0.003534178 -0.05141492 -0.023229837
000260 0f d7 33 3c 8f 7b 76 3d 5e 89 90 3d fb 05 01 3e
       0.010976567 0.06017643 0.07057451 0.12599938
000270 19 0d 13 be 68 72 63 bd 56 50 3e 3c 2e f6 c0 3c
       -0.14360465 -0.05552903 0.011615833 0.023554888
000280 8d 14 0a be 3a 5c 8a bc 1f 2c 14 bd b9 24 88 bd
       -0.13484402 -0.01688968 -0.03617489 -0.06647629
000290 ec 08 9a 3d 53 c0 7c be 08 9d e3 3c 28 87 36 be
       0.07521233 -0.24682741 0.02778484 -0.17824996
0002a0 64 e2 d0 bd e6 d6 bd 3d e1 e5 c0 bc d3 ef 97 3d
       -0.101994306 0.09269504 -0.023547115 0.0741879
0002b0 82 0e 15 be b2 fb d1 3d 51 a7 fc ba 37 df 5b bd
       -0.14556316 0.10253085 -0.0019275938 -0.05367967
0002c0 0a 6e b5 bd 3d b1 fd bd 34 88 92 bd ac c6 fc bd
       -0.08858879 -0.12387321 -0.07154885 -0.12342581
0002d0 c1 78 40 be ee ae f6 bd 43 2c 8c 3c 5b 2f 66 3e
       -0.18796064 -0.12045084 0.01711095 0.22479002
0002e0 f9 88 2e 3c 72 99 06 3e d3 4b 2f 3d 94 30 d0 3d
       0.010652774 0.13144472 0.04279692 0.101655155
0002f0 c7 be 49 3d ac 3a 6c bd f3 0b e5 3d fc 6a 00 3e
       0.049254205 -0.05767314 0.1118392 0.12540811
000300 c8 0d e1 3d f5 25 55 3c e5 4a 92 bd 90 92 b4 3d
       0.10988957 0.013009538 -0.07143191 0.08817017
000310 7f 57 b2 bd 63 a3 f3 bd 96 e6 b2 bd 3e e9 92 bd
       -0.08708095 -0.11896398 -0.08735387 -0.07173394
000320 6b ed b9 bd 8d ec c7 bc e2 ed b8 bc 75 6b ac 3d
       -0.09078487 -0.024404788 -0.022574369 0.08418933
000330 85 45 06 be d1 b4 96 bd f5 60 22 3e 68 af a1 3d
       -0.13112457 -0.07358707 0.15857299 0.07894784
000340 37 f6 0f 3d cf 68 02 be 71 ed 70 3d 44 8b b9 bd
       0.03514692 -0.12735294 0.05882019 -0.09059766
000350 32 fb 0c 3e 09 4f c9 bc f4 0d 38 3d a1 a2 1a 3e
       0.13767698 -0.02457382 0.04493518 0.151011
000360 36 3c 78 bd 33 2e a6 3c 27 5c 24 be c9 7f af bd
       -0.060604297 0.020285701 -0.16050778 -0.08569295
000370 bb 80 b5 3d c0 20 ec 3d 76 ee ca 3c 3d f9 27 3c
       0.08862444 0.11529684 0.02477191 0.010252294
000380 1c 93 b4 3d 29 69 01 3e b2 38 af 3b 30 9b 6e 3c
       0.088171214 0.12637772 0.005347335 0.014563367
000390 d0 a6 39 bd d5 e1 13 be 1e c6 01 3c 36 4e e7 3d
       -0.0453251 -0.14441617 0.00792077 0.112942144
0003a0 4f b5 d1 3d f4 ca 81 bd 71 74 b2 bd fd ac d1 3d
       0.1023966 -0.06337538 -0.08713616 0.10238073
0003b0 b0 b9 d3 3d e1 f9 98 bd 72 42 16 3e 30 99 14 bd
       0.103381515 -0.074695356 0.14673784 -0.036278903
0003c0 6b ba 34 3e a8 7c bc bc 00 40 51 3d 4f f6 30 3d
       0.17649238 -0.02300866 0.051086426 0.04320365
0003d0 39 03 11 bd f9 dd 0d be 62 26 96 3c d1 65 0e 3d
       -0.035403464 -0.13854207 0.01832885 0.03476507
0003e0 ee 1e 1f bd 78 32 39 3e fa aa 43 3e 9f 7d 9d bd
       -0.038847856 0.18085659 0.19108191 -0.07689976
0003f0 d8 34 23 3d 58 20 36 3e 53 93 e3 3d 08 18 a4 3d
       0.039845318 0.17785776 0.11112084 0.08012396

latent_to_features.0.bias f4 [1024]
000000 83 9c 23 bd 5f 74 3d be 90 4f 0c 3d 4c 95 26 be
       -0.039944183 -0.18501423 0.034255564 -0.1626789
000010 6f 16 1a bd 41 a5 ae be 81 ac 2c bd a3 c8 83 3c
       -0.03761905 -0.34110454 -0.0421567 0.016086882
000020 bb ec 92 be 8f 4d aa be dd 91 b8 be 2d 16 87 bd
       -0.28696236 -0.33262298 -0.36048785 -0.065960266
000030 c8 48 7b 3d 5e 83 e3 bd 57 e9 09 3e 8a a8 fe bd
       0.061348706 -0.11109041 0.13467918 -0.1243449
000040 f4 ab 93 be 04 1e d7 3d 7b a4 59 be 59 c2 09 be
       -0.28842127 0.10503772 -0.2125415 -0.13453044
000050 4d e4 18 3e 49 df 47 be 13 21 26 be fa 4a 43 3d
       0.1493084 -0.1951877 -0.16223554 0.047678925
000060 e2 46 4f 3d 6f e1 a2 bd f4 6a 63 3e 8c 9b e9 3d
       0.05060471 -0.07953154 0.22208768 0.11406621
000070 9d 2c c7 3d e5 78 86 bd c4 3c a5 bd 0a ea ab bd
       0.09725306 -0.065660276 -0.08068231 -0.08394249
000080 67 c9 95 bb 9b af 94 3e 25 22 02 be cf 08 32 3e
       -0.004571128 0.29040226 -0.12708338 0.17386173
000090 11 9c c5 bd f4 21 09 3e bf bb b7 bd 23 e8 6b 3e
       -0.09648908 0.13391858 -0.089713566 0.23037772
0000a0 67 ef 94 3e 2f f3 49 be 14 9d f2 bd 74 ec bf 3d
       0.290889 -0.19721673 -0.118463665 0.09371272
0000b0 4b ea b8 3d 77 e8 f0 3b 6a 56 8e be bf 39 90 3c
       0.09029063 0.0073519307 -0.27800304 0.01760566
0000c0 e1 df 30 3e 61 31 9b bd 4d 6f 93 be c4 7b 5d 3e
       0.17272903 -0.07577778 -0.28795853 0.21629244
0000d0 af d2 03 bd a2 d3 b7 be 32 77 29 be e1 ad 1e be
       -0.032183345 -0.3590365 -0.16549376 -0.15496017
0000e0 90 c7 1f be 82 aa 28 be cf 46 39 be d9 c3 4b 3e
       -0.15603471 -0.16471294 -0.18093418 0.19898929
0000f0 d1 f0 81 3d 1d a7 02 3d 48 36 e2 be 9b 4c da 3b
       0.0634476 0.031897653 -0.44182038 0.006661964
000100 a2 7a 0c bd 06 37 34 3e 77 b2 20 be 4d a5 72 3e
       -0.03429664 0.17599115 -0.15693079 0.2369587
000110 d0 99 92 3d 20 11 21 be 14 dd 93 be c7 63 10 3e
       0.07158244 -0.15729189 -0.28879607 0.14100562
000120 dd a2 cd ba 76 97 91 be f2 f4 72 be 06 ed 87 3e
       -0.0015688796 -0.28435868 -0.23726252 0.26548022
000130 02 6b 3e bd bd 99 8e bd 0e 4f 8b be db f8 1d 3c
       -0.04648877 -0.06962917 -0.2720875 0.009641851
000140 3b 69 34 bb 2e 1f b3 3d 53 90 86 be d5 94 6d bc
       -0.0027528543 0.087461814 -0.26281986 -0.014500816
000150 ca 17 e6 bd 27 4a bb 3d 64 17 8f bd 63 39 7c bd
       -0.11235006 0.09145003 -0.06986883 -0.061578166
000160 71 74 e1 bd f2 83 f8 3d 26 68 9b be 73 93 40 bc
       -0.110085376 0.121345416 -0.30352896 -0.011753905
000170 aa ca 3b 3d fc 98 03 3e bf 18 38 be 7c 99 66 bd
       0.045847572 0.12851328 -0.1797819 -0.056298718
000180 42 d3 8e 3e 12 3b ae 3e 36 bc 35 be 0d 4d 9b 3d
       0.27895552 0.34029442 -0.17747578 0.07583056
000190 33 c3 18 3e 37 ac bb bc fd 7d 86 bd 02 fb d9 3d
       0.14918213 -0.022909267 -0.06566999 0.10643579
0001a0 1d a2 c1 3e f1 c6 35 be 82 9c 19 bd a4 16 4f 3e
       0.37818995 -0.17751671 -0.037502773 0.2022348
0001b0 cd 3e 3b 3d 32 2d e4 bd da 9a 9a be 47 a6 91 3e
       0.04571419 -0.11141433 -0.30196267 0.28447172
0001c0 3e 5d ce 3b ca b5 f6 3d 8f b9 1f bd fd 8f 77 3d
       0.0062977364 0.12046392 -0.03899532 0.060440052
0001d0 55 e9 05 3e 21 6c 31 3c 9a 38 16 be 2e 94 bd 3d
       0.1307729 0.010829003 -0.1467003 0.09256779
0001e0 08 75 90 bb a3 91 99 3d f8 18 37 be 1e 9a a5 3e
       -0.0044084825 0.07498481 -0.17880619 0.32344145
0001f0 e7 e0 23 3d 30 fa 14 be 5b 61 73 bd 74 e7 64 3e
       0.040009405 -0.14548564 -0.059419017 0.22353917
000200 8e 13 64 3e 77 95 d5 bd 80 0d db 3d a3 23 08 3d
       0.22273085 -0.10428899 0.10695934 0.03323711
000210 8b e5 7a 3d be 3a 07 be 43 e8 4f be 9c 67 52 3d
       0.061254065 -0.13206002 -0.20303445 0.05136834
000220 9e b8 73 3e 1c 2c 6d be 82 dc 9e bd 7c 9f 8b bd
       0.23800895 -0.23161358 -0.07756902 -0.068175286
000230 e5 57 a4 bd f3 2e 26 3e d5 9e 2c be 8a 95 d7 bd
       -0.08024577 0.16228847 -0.16857465 -0.10526569
000240 7c ba 57 bd d8 02 45 bd cf 99 8c be 2e c8 9a 3d
       -0.05266808 -0.048098415 -0.27461097 0.075577125
000250 83 83 40 3e f1 9a 41 bd c7 e8 25 be e9 5e 46 be
       0.18800168 -0.047266904 -0.16202079 -0.19372143
000260 b4 9a 6a 3e bc 75 14 be 4d 31 1c 3d bc 64 64 bd
       0.22910577 -0.14498037 0.038132954 -0.05576013
000270 73 d4 9b 3d 5d 56 9b be cb c1 86 3d 8e 1b 3b 3e
       0.07608881 -0.30339327 0.06579932 0.1827223
000280 06 41 12 bd c9 0c bb bc 70 8a a4 bd 89 28 29 be
       -0.035706542 -0.022833245 -0.08034217 -0.16519369
000290 3f 7f f4 3d b6 86 34 bd e4 6e 58 bd c2 62 29 3e
       0.11938333 -0.044073783 -0.05284013 0.1654158
0002a0 4a b7 d9 bd 01 2e db 3c 13 2d 92 3d fc bf f7 3d
       -0.10630663 0.026755335 0.071375035 0.12097165
0002b0 e2 ae 3f 3d 66 99 03 3c f6 80 a8 bd e8 10 c8 3c
       0.04679764 0.0080321785 -0.08227722 0.024422124
0002c0 8b 11 57 3e 5a e7 d9 bd 18 52 f7 bb 9d 90 8a bd
       0.21002786 -0.1063983 -0.007547628 -0.06765864
0002d0 bc d5 11 be 2b 44 11 ba 3a c3 43 be ad b6 a0 bd
       -0.1424169 -0.0005541469 -0.19117442 -0.07847343
0002e0 63 58 a9 bb 4f aa 39 be 66 10 0d be ba 7f 10 be
       -0.005168007 -0.18131374 -0.13775787 -0.14111224
0002f0 55 51 2a be cc 5d 96 be 1d 5d 98 be 9a 67 12 be
       -0.16632588 -0.29368436 -0.2975854 -0.14297333
000300 a7 24 15 be ab 68 b0 3d 14 2f 42 be 73 9b 3d 3e
       -0.14564763 0.08613714 -0.18963271 0.1851633
000310 c4 99 d4 bd fd 1d 80 bd 69 8b c8 3c 1f fb fc bd
       -0.10380891 -0.0625572 0.024480538 -0.12352585
000320 88 1c 3b 3e ba 8f 0c be 04 d3 0b 3e 6c bd 9c bc
       0.18272603 -0.13726702 0.13654715 -0.019133292
000330 53 ce 0c 3e 9c 63 44 bc 44 bb e7 3d 9e ca 77 3d
       0.13750581 -0.011986639 0.11315015 0.060495965
000340 cc fb 7b 3e 69 a6 0b be 3c fc 85 bd 2e b9 cb bc
       0.24607772 -0.13637699 -0.065422505 -0.024868574
000350 56 ac 35 3e e8 b0 0a be 1e e8 32 be 2d 94 76 3d
       0.17741522 -0.13544047 -0.17471358 0.060199905
000360 a6 b8 6f 3e 34 35 3f bd 28 da 00 be 57 1e a2 3d
       0.23410282 -0.046681598 -0.1258322 0.07915943
000370 ed fb 86 3d c1 d5 2b be a8 c7 e8 3d 6f f1 b3 bd
       0.0659102 -0.1678076 0.113662064 -0.08786284
000380 02 f8 d3 3c 77 6e 0d 3e 3c 11 77 3e 6e 8b 04 be
       0.025875095 0.1381167 0.24127668 -0.12943813
000390 76 4f 22 bd 36 ed 12 bd db a7 2c 3e 18 68 ac 3d
       -0.03962656 -0.035870753 0.16860907 0.08418292
0003a0 1e 17 46 3e 60 b4 8b 3d 27 55 05 3f 7c 5e b0 3d
       0.19344756 0.06821513 0.5208306 0.086117715
0003b0 83 05 39 bc 0f d9 39 bd f6 c8 06 be 59 c5 a8 bd
       -0.011292818 -0.04537302 -0.13162598 -0.08240766
0003c0 0b 20 9e 3d 33 15 20 3e 2f 9a 5f be 02 60 81 bd
       0.077209555 0.15633087 -0.2183616 -0.0631714
0003d0 80 4d 00 3e 9d b9 12 3d 24 67 72 bc 31 19 6c be
       0.12529564 0.035821546 -0.014795098 -0.23056485
0003e0 cc 73 40 3d a4 53 65 be 16 8e 82 bd f8 82 b5 be
       0.046985433 -0.22395188 -0.06374757 -0.35451484
0003f0 1b 04 26 be ed 09 00 3c e2 35 c8 3d a3 97 d1 bd
       -0.16212504 0.0078148665 0.09775902 -0.102340005

block_1.0.weight f4 [64, 32, 4, 4]
000000 36 0d bb bd 14 53 55 bd ec 86 8b 3c 6a 54 cf bc
       -0.09133379 -0.052081183 0.01703211 -0.025308806
000010 aa ff a4 bc 83 5f 44 3d 69 08 37 3d 28 7a 28 bc
       -0.020141441 0.04794265 0.044685755 -0.010283031
000020 b4 a1 78 bc a3 65 30 bd 29 ec 9b bd 7a f4 a2 bc
       -0.015175272 -0.04306568 -0.07613403 -0.019891966
000030 04 dd ea 3d 2d 6f e7 bc 5d 9f 06 3c 52 0b 99 3d
       0.11467937 -0.028251255 0.008216706 0.07472862
000040 e5 fa 2f 3d fe 42 d0 3d f7 1c 38 bd 24 f7 ab 3c
       0.04296388 0.10169028 -0.044949498 0.02099187
000050 ea 4f 87 bc fb 8c 26 be 8b 86 d7 3d c6 59 b3 bd
       -0.016517598 -0.16264717 0.10523709 -0.08757357
000060 d6 b7 0c bd c9 91 92 3d fc 14 98 bb f4 07 02 3e
       -0.034355007 0.071567126 -0.0046411734 0.12698346
000070 7a aa 13 3e bc e1 85 bd 47 63 21 bd 4f c7 8f bd
       0.144205 -0.06537196 -0.03940132 -0.07020437
000080 62 f8 89 be bd 5e 97 bb b4 f4 23 bc 08 81 b9 3d
       -0.26947314 -0.004619448 -0.010007072 0.09057814
000090 d1 9b 10 bd 3d 67 26 bd 65 8c 23 3e 27 bb 9d bc
       -0.035304848 -0.0406258 0.15971525 -0.01925428
0000a0 1c 13 9e 3d ac ec 42 3d d5 00 8b be d7 b1 c8 3d
       0.077184886 0.04758899 -0.27149072 0.09799545
0000b0 d1 e7 ef bd 08 f0 af 3d 15 76 e8 3d 72 30 c7 bb
       -0.11714137 0.08590704 0.11350647 -0.006078773
0000c0 5b 6a c9 3d e5 34 a8 bc 1d 4e 2d 3c 2c 3f 11 3e
       0.09834739 -0.020533035 0.010577706 0.14184254
0000d0 a0 16 83 3c 30 86 99 bd 75 a4 75 3d 80 11 34 bd
       0.016002 -0.07496297 0.05997129 -0.043962
0000e0 77 3b d5 3d 9d fd 5e bb ce d1 7c bd b8 fa e8 3d
       0.10411733 -0.0034025677 -0.061723523 0.11375946
0000f0 7c 0f be 3d b0 ab 20 bd ca 3e 07 3d 5c 5d b4 bb
       0.09280297 -0.039226234 0.033018865 -0.0055042934
000100 15 95 56 3d 54 15 8f bb d5 1f d9 3d b3 9e f6 3d
       0.05238827 -0.004366556 0.106017746 0.12041988
000110 7d de 82 3d 16 3a ee 3d 3f 85 86 3c 8c b7 3e 3c
       0.063900925 0.11632173 0.016420959 0.011640441
000120 49 27 4c bd 3a fb 3e bc 80 aa 5b bd 08 13 c8 3c
       -0.049842153 -0.011656577 -0.0536294 0.024423137
000130 da 93 7d 3d f3 9b 7c bc 39 a9 ac bc 15 b3 4f 3c
       0.06190858 -0.015418041 -0.021076785 0.012676974
000140 3f ab 8f 3d 72 77 f4 3d e9 03 df bd 91 9c 18 bd
       0.070150845 0.11936845 -0.10889418 -0.03725869
000150 e7 fc 71 be bd 00 6f bc 27 e5 14 bd 5f fa 57 bd
       -0.23631631 -0.014587578 -0.03635135 -0.052729007
000160 ec be 80 bd e4 22 58 bd 4e 74 d6 bc 7a 7a 82 be
       -0.062864155 -0.05276765 -0.026178505 -0.25484067
000170 90 12 19 3d 65 63 07 bd 1f cf 5c 3d 7e 33 af 3d
       0.03737122 -0.033053774 0.053908464 0.08554743
000180 4c 0e fb 3d 3b 83 5b 3c 92 e5 38 bd 90 e6 2d 3d
       0.12258586 0.013397987 -0.04514081 0.04245621
000190 50 b0 79 3d cb 77 d4 bd 2c 70 0c bd 37 04 88 3d
       0.06095916 -0.10374411 -0.034286663 0.06641429
0001a0 56 1a 37 bd 8d 43 2b be aa ee 0e bd f2 ad 7f 3d
       -0.04470285 -0.16724987 -0.034895577 0.062421747
0001b0 02 b7 f1 bc d1 70 b1 bd ae dd 3d bc 60 8a 68 3b
       -0.02950621 -0.08664096 -0.011588497 0.0035482869
0001c0 d6 9a f3 bc 89 99 d2 bc dd 79 a5 bd 59 87 61 bc
       -0.029736917 -0.025707977 -0.08079884 -0.01376518
0001d0 c4 c8 a3 bd 60 be db bd f0 12 83 bd 7e 70 2e 3d
       -0.079972774 -0.107296705 -0.064000964 0.04258775
0001e0 c7 bd 8a ba 5f 06 c8 3d 58 2f 7a 3b 5c a3 d9 3d
       -0.0010585123 0.0976684 0.0038175192 0.106268615
0001f0 2d 31 ab 3d 76 8d 99 bc 0d 74 e3 bc a0 8a 1a 3d
       0.08358989 -0.018744212 -0.027765298 0.03772986
000200 e0 11 93 bd 16 76 d8 3c 77 ba d7 3d 2b c6 81 3d
       -0.07181144 0.026423495 0.10533612 0.06336626
000210 6c 54 57 3c 25 0f ea 3d bc a0 f2 3d 7c 1d b3 3d
       0.013142686 0.1142867 0.11847064 0.08745858
000220 44 2a a7 3d 5c ae 80 3d cd 19 e2 3d 11 a0 86 3d
       0.081623584 0.062832564 0.11040077 0.06573499
000230 46 2a f1 3d bf 40 86 3c 78 80 a4 ba 06 18 8a 3d
       0.11775641 0.016388295 -0.0012550494 0.06742863
000240 76 9d 98 3d 8c 8f 00 3e 34 6e c0 bc 06 30 be 3d
       0.07451908 0.12554759 -0.023490049 0.092865035
000250 f7 0e 36 3c 24 65 2b 3e fb 8f bc bc 27 0e 07 bc
       0.011111966 0.16737801 -0.023017874 -0.00824312
000260 62 47 42 3e 6b 61 0f 3e a8 14 92 3d 71 b3 b5 3d
       0.18972543 0.14002006 0.07132846 0.08872116
000270 9e a4 8f 3d 78 a2 c1 3d ed fc 58 bd d5 1d 16 be
       0.0701382 0.094548166 -0.052975584 -0.14659818
000280 65 27 3d 3d 60 a3 1c 3e 7a 43 2c bc 05 06 35 3e
       0.046180148 0.15296698 -0.010514135 0.17678078
000290 b8 77 aa 3b 2d b9 8a ba fa a9 0c 3d 2e 6b 1f 3e
       0.00520226 -0.0010583751 0.03434179 0.1556823
0002a0 30 a1 a1 bd 81 da a9 bd be 31 e5 3c 4c 88 7c 3b
       -0.07892072 -0.082936294 0.02797782 0.0038533388
0002b0 c8 9c 30 be a2 20 0c 3d a2 af d8 3d 43 39 2a bd
       -0.17247307 0.03421081 0.10580374 -0.041558515
0002c0 ee 7f a2 bc 30 d3 19 be aa a0 26 bc 31 f9 9b bd
       -0.019836392 -0.15021968 -0.010170141 -0.07615889
0002d0 35 a8 f3 3d da 00 8a bc 95 a4 ad 3d 13 de f0 3c
       0.11897317 -0.01684611 0.08478657 0.029402768
0002e0 e7 2a 5b 3e ba 8f 36 3b e7 b2 ba bd 83 71 59 be
       0.21403085 0.0027856664 -0.09116154 -0.21234708
0002f0 52 4c f5 3d b3 cb 41 3d 34 15 fa bd 8f 6a 84 3d
       0.119774476 0.047313403 -0.122110754 0.06465637
000300 4e e3 a8 bd b9 40 5e bd 19 3b 8a bd 21 12 3c bd
       -0.0824648 -0.054260943 -0.06749553 -0.045915727
000310 d2 06 6b bd cd 37 27 be 23 88 88 bd 7d 27 62 3d
       -0.05737955 -0.1632988 -0.06666591 0.05521344
000320 64 d9 bf 3d 72 c4 17 3d de c5 0c bd 8e 0b ff bc
       0.09367636 0.03705258 -0.03436839 -0.03113344
000330 56 30 94 bd e3 fb 4f 3d 42 33 7f bd 83 5b 6e bd
       -0.07235782 0.050777327 -0.062304743 -0.05819274
000340 d1 86 a7 3c 4e 81 39 be 13 b3 07 be 5e 41 a3 bc
       0.020450028 -0.18115732 -0.13251905 -0.01992863
000350 f3 42 3a 3d cc 29 4d bd 7c 0a 30 bc 90 5b 98 bd
       0.045474004 -0.05008869 -0.010744687 -0.07439339
000360 77 73 d7 3d 4a 89 f6 bd 1d 13 0b bd e8 88 88 bb
       0.1052007 -0.120379046 -0.033953775 -0.004166711
000370 7a ab 86 bd 5c 79 1b be 1c ae 1b 3c 46 65 f7 bd
       -0.06575675 -0.15183014 0.00950196 -0.12079863
000380 34 00 eb 3c d2 1e df bc 9d 4d 6a 3c e7 55 21 3e
       0.02868662 -0.027236376 0.014300731 0.15755425
000390 3c 16 8d bc fa ef 59 bd 04 67 7d bd ff cf 39 be
       -0.017222516 -0.053207375 -0.06186582 -0.1814575
0003a0 ea a9 14 3c d7 88 75 bc 94 19 c7 bd d6 e6 25 bd
       0.009073714 -0.014986238 -0.097216755 -0.040503345
0003b0 fe fe 69 b9 b3 73 b1 bd 7b 9b 73 ba ed 5b 2d 3d
       -0.00022315604 -0.08664646 -0.0009292883 0.042323995
0003c0 14 0b b4 bc 2a 29 d8 bd b8 ef 7b 3d e4 57 b5 bc
       -0.021977939 -0.105547264 0.06150791 -0.022136636
0003d0 8e 2f a7 3c a2 34 83 bd e6 8b 61 3d 2d 93 00 bc
       0.020408418 -0.06406523 0.05506506 -0.007847589
0003e0 35 22 54 3d a9 db 19 be 2f e5 63 be 45 73 f6 bc
       0.051790435 -0.150252 -0.22255395 -0.030084262
0003f0 33 2b e2 3c 5a ec c6 bc 7e 2c 1a bd 84 78 f9 3c
       0.02760849 -0.024282623 -0.037640087 0.030452974

block_1.0.bias f4 [32]
000000 d1 69 78 3e 54 03 2e 3d 23 14 98 3c 9f ca ed 3d
       0.24259116 0.042483643 0.01856429 0.116109125
000010 9a 98 b1 3a 3a a6 38 bc a2 2e 94 3d 59 52 bb bd
       0.0013549507 -0.0112701 0.07235457 -0.09146566
000020 65 56 0b 3c 51 2e c4 3d c2 8c a3 3d 5b 8f 83 3d
       0.008504485 0.09579147 0.07985832 0.06423827
000030 08 5b e9 3d 78 d0 de bc 0c c0 bd bd 64 bb 9e 3c
       0.11394316 -0.027199015 -0.09265146 0.019376464
000040 48 a3 a3 3e 62 4c 61 3e 84 18 11 bc 91 c4 a3 3d
       0.3196051 0.22001794 -0.008855943 0.079964764
000050 49 4e 94 3d 09 62 51 3d dc 0c ac 3c f5 96 eb 3d
       0.07241494 0.051118884 0.021002226 0.11503402
000060 a4 ca 62 bd a4 d2 aa 3d c4 1a bf 3d b8 25 fa bc
       -0.055369034 0.08340958 0.09331277 -0.030535564
000070 53 75 ab bb aa 9f c5 3e 5b b7 d1 3d 97 61 14 3d
       -0.005232492 0.38598377 0.102400504 0.03622588

block_1.2.weight f4 [32]
000000 8e 10 ac 3d e6 ee ad bd ec 2f 8c 3d 59 f3 5e bd
       0.08401595 -0.08492832 0.06845078 -0.054431293
000010 21 2e 90 bd 59 73 9a bd 69 58 9a bd 94 1c 90 bd
       -0.070400484 -0.07541532 -0.07536394 -0.07036701
000020 58 26 d4 3e 63 e7 ba bd 2f ac c1 3d 55 17 92 bd
       0.41435504 -0.09126165 0.094566695 -0.071333565
000030 f4 5d a9 3d be d7 72 bd 88 33 88 3d 45 14 8a bd
       0.08269873 -0.05928778 0.06650454 -0.06742147
000040 e7 55 9e bd 08 c3 d0 3d 92 7b 54 3e dd 5f ac bd
       -0.07731228 0.10193449 0.20750263 -0.08416722
000050 43 70 96 bd 66 85 8a bd 3e 3e c4 3d 68 6d 72 bd
       -0.07345631 -0.06763725 0.09582184 -0.05918637
000060 ff 02 4e bd 51 d9 a8 bd f9 eb 96 3d 3f ac 8a 3d
       -0.050295826 -0.08244575 0.07369227 0.067711346
000070 ca 5c 8b bd 6c b7 c5 3d c6 30 c0 bd bf 27 87 3d
       -0.068048075 0.096541256 -0.09384303 0.06599378

block_1.2.bias f4 [32]
000000 53 db 15 3c 04 67 19 3d bd 06 fa bc c3 65 c3 bc
       0.009146529 0.03745176 -0.030520791 -0.023852235
000010 d0 6f 5a bd 11 1f e4 3a b0 70 8a bb 10 f4 3d 3d
       -0.05332929 0.0017404278 -0.004224859 0.046375334
000020 b3 41 d3 3d b7 7f 3a bd 27 4a 57 3d f1 8e 60 3b
       0.103152655 -0.045531955 0.05256095 0.0034264887
000030 c0 cf 1a bb 4c 87 3f 3d 35 fe 6a bd 5f 2c c5 bc
       -0.0023622364 0.04675989 -0.057371337 -0.02406901
000040 07 9d 01 3c 3d 54 3f 3d e2 9d 2c 3d 46 8a 8f 3d
       0.007910973 0.046711195 0.042142756 0.070087954
000050 a4 75 db bc 8a aa c3 3b 83 9b a5 bc d8 d0 91 3d
       -0.026789494 0.0059712576 -0.020215755 0.07119912
000060 06 c4 f7 3c aa 8d 18 3b 81 67 cd 3c f9 60 0d 3d
       0.030244838 0.0023277798 0.025073769 0.03451631
000070 7e 96 d3 bc 64 2f 56 bd bb eb ab bc 4a 5c 88 3b
       -0.025828596 -0.05229129 -0.020986428 0.0041613923

block_1.2.running_mean f4 [32]
000000 36 1f 03 3f fb 12 73 3e 49 13 66 3e e5 60 19 3f
       0.512195 0.23737709 0.22468294 0.59913474
000010 37 63 e0 3e 70 03 99 3e 6f ae 29 3f 1c 4c 85 3e
       0.43825695 0.29885435 0.6628179 0.2603463
000020 7f e5 c7 3d c0 28 60 3f 48 5b 2b 3f 94 f5 c5 3e
       0.0976057 0.8756218 0.6693616 0.38663924
000030 0e 34 78 3e 08 0d 44 3d b9 b9 24 3e 84 3d 12 3e
       0.24238607 0.04786399 0.16086473 0.14281279
000040 d8 f6 57 3f 20 a6 7a 3e 3c 48 fa 3d d0 4b c4 3e
       0.8436103 0.24477434 0.12220809 0.3833909
000050 b7 2e da 3e 71 21 b0 3e e8 7b bd 3d 6e a8 8e 3e
       0.42613766 0.34400514 0.09252149 0.27862877
000060 eb 8f 25 3e 8d 83 20 3e 71 8a f8 3e 2b 4e c4 3e
       0.16168182 0.15675183 0.48543122 0.38340887
000070 6f ba 06 3e 2c ef 0d 3f f5 16 74 3e ce 28 b0 3e
       0.13157056 0.5544307 0.23836882 0.34406132

block_1.2.running_var f4 [32]
000000 f4 af 9b 3e 1e fc 20 3e 22 23 36 3e 54 5b bb 3e
       0.3040768 0.15721175 0.1778684 0.36593115
000010 0e 3e 9e 3e 84 1b 85 3e 62 01 e1 3e 0d 15 5e 3e
       0.3090672 0.25997555 0.43946368 0.21687718
000020 c3 e7 ab 3d 0b 83 21 3f 3b 5e d3 3e 46 64 95 3e
       0.083938144 0.6309058 0.4128283 0.29178065
000030 0c 01 47 3e 12 f5 26 3d e3 26 03 3e 5b 1a ee 3d
       0.19433993 0.04076106 0.12807803 0.11626121
000040 de 8f df 3e 8b b2 3d 3e d4 08 cc 3d 00 bf 9e 3e
       0.4366445 0.1852514 0.09962621 0.31005096
000050 d1 57 9a 3e 36 39 a8 3e fa f9 da 3d b1 f2 7f 3e
       0.30145124 0.32856148 0.106922105 0.24994923
000060 07 bc f5 3d 34 80 ff 3d bc d3 bf 3e 43 c8 8c 3e
       0.11998754 0.12475625 0.37466228 0.27496538
000070 d4 88 bf 3d 4a fa be 3e 15 86 3a 3e cb 93 9f 3e
       0.0935227 0.3730033 0.1821521 0.31167445

block_2.0.weight f4 [32, 16, 4, 4]
000000 2f fb 87 3d 0a 0a 62 bd a5 e5 54 3d 4d 15 83 3d
       0.06639706 -0.055185355 0.05197682 0.06400547
000010 a4 30 1b be 85 b9 4b 3c b8 15 bf 3d 96 ef 28 3d
       -0.15155274 0.012434368 0.093303144 0.041244112
000020 7c fb 05 3c bf c9 26 3e 53 94 f4 3d b6 db 03 3e
       0.008177634 0.16287898 0.11942353 0.12876782
000030 72 6f f5 bd 2f cc a2 3d 0c a0 b5 bd ca 2c 9c bc
       -0.11984147 0.07949101 -0.08868417 -0.019064326
000040 d2 38 a7 3d 31 06 08 3e ac 96 ed bd 72 a7 cd 3c
       0.081651345 0.13283612 -0.11601004 0.025104258
000050 0f b1 d8 bd de 87 cb bc fb 75 8e be 40 84 9d bd
       -0.10580646 -0.02484506 -0.27824387 -0.0769124
000060 32 58 e8 3d 5f e0 63 3e e6 a3 19 3d 3f cf 34 3e
       0.11344947 0.2225356 0.03750982 0.17657183
000070 27 2d 6a bc 96 1f 95 3d f3 b2 2f bd 63 68 80 bc
       -0.014292992 0.07281415 -0.04289527 -0.015674775
000080 05 33 01 bd f4 17 df bc 93 6a 09 be 5f 4b bc 3b
       -0.031542797 -0.027233101 -0.13419561 0.0057462896
000090 b5 42 6d 3c 1a 2f 21 3d a5 f4 59 3c a3 6f 16 3d
       0.014481236 0.03935156 0.013302957 0.03672756
0000a0 3a eb f1 3b fc 9a 95 bc ed d4 40 3c 0b 68 7e 3d
       0.0073827775 -0.018262379 0.011769515 0.06211094
0000b0 4b 22 66 bd 05 3b 9e bd a0 3a c3 3c ef a9 be bc
       -0.056185048 -0.07726101 0.023831666 -0.02327439
0000c0 0e df 9b bd 58 d5 ac bc da 57 c4 3d 70 44 5c bd
       -0.07610904 -0.021097824 0.09587069 -0.053776205
0000d0 31 44 09 bc 00 53 24 bd fc 92 0c bd a8 ae 0d be
       -0.0083780745 -0.040118217 -0.034319863 -0.13836157
0000e0 63 45 bb bd a9 90 8e 3d 11 8f 20 bb 10 7d 4a 3c
       -0.09144094 0.069611855 -0.0024499337 0.012358919
0000f0 09 29 9c bd 87 3f 31 3d 8d 4d 03 be 27 8f b1 bc
       -0.07625014 0.043273475 -0.12822552 -0.021674706
000100 fc 14 81 3c 08 8b 5d 3c 0c 03 b8 3d 13 0c 83 3d
       0.015757076 0.013521917 0.08984956 0.06398787
000110 66 68 1a bd b2 59 68 bd 6b 75 59 bc 87 a2 91 3c
       -0.03769722 -0.056726165 -0.0132726235 0.017777694
000120 aa 9f 66 bd 69 a4 81 bd 58 17 53 bd 2a d4 92 bc
       -0.05630461 -0.06330187 -0.051535934 -0.017923433
000130 74 58 55 3c 5d 07 b0 bc 2b ed 1b bd 53 85 b4 bd
       0.013021577 -0.021487886 -0.038067978 -0.08814492
000140 3a e7 a8 3d db 52 cd bd 89 a1 29 3d 9a c1 4d 3c
       0.08247228 -0.10025569 0.041413818 0.012558365
000150 2f e1 5a bd 15 87 09 be de 12 09 bd 1f e7 87 3d
       -0.053437408 -0.13430436 -0.03346526 0.0663588
000160 f6 ed 30 3d 26 6a 14 3d 76 cc ab 3d 81 23 e6 3d
       0.043195687 0.036234044 0.08388607 0.112372406
000170 23 ac b1 bd 47 1c 0b bc 2c 3b 8a bd d4 80 bd bc
       -0.086754106 -0.008490629 -0.067495674 -0.02313272
000180 bf d7 83 3d d5 8d 80 bd cc 04 7b bd 1d 25 59 3b
       0.06437635 -0.06277052 -0.06128387 0.0033133694
000190 5a 10 f6 3d b1 dc c9 bd d1 63 b0 bd d4 04 bf bc
       0.120148376 -0.09856547 -0.086127885 -0.023317732
0001a0 bb db 21 3e 44 d4 56 3d 28 7e 0c bb 03 5c db bc
       0.15806477 0.052448526 -0.00214375 -0.026777273
0001b0 f8 08 bb 3d d9 6d 24 bd 67 2e 28 be 16 80 0f 3e
       0.0913257 -0.04014382 -0.16423951 0.14013705
0001c0 43 3b cf 3b 01 53 ca bc a1 94 8a bd be c2 da bc
       0.006324203 -0.024697782 -0.0676663 -0.026704188
0001d0 c1 ed 52 3d 0d e7 97 bd c5 d5 a1 bd 3c 1a 96 3d
       0.05149627 -0.07417116 -0.079021014 0.073292226
0001e0 a6 04 f3 bc 80 ff 58 3d 02 dd 13 bd 33 8a 0f bd
       -0.029665302 0.05297804 -0.03609944 -0.035043906
0001f0 32 b8 a0 bd ee 87 a7 bc d4 66 9a bd 3e bc 29 bc
       -0.078476325 -0.020450559 -0.07539144 -0.010359822
000200 43 0d cc bc 1b fc 38 bd 04 ab a3 bd 93 8e ab bd
       -0.024908667 -0.0451623 -0.07991603 -0.08376803
000210 5f c3 9b bd 0a e5 69 be 93 86 db bd 68 6c 3f bd
       -0.076056235 -0.22841278 -0.10719027 -0.046734244
000220 50 fc da 3c ab a9 17 bd 34 a3 4a bd f1 43 d6 3c
       0.02673164 -0.037027042 -0.04947205 0.026155444
000230 75 71 9f bd d5 4a d4 bc d2 9a 43 bd 5c e2 34 3c
       -0.07785312 -0.025914589 -0.04775507 0.011040296
000240 bd 9b 53 bb bc ab 1d 3c d6 65 19 bd 72 d3 0a bb
       -0.0032288872 0.009623464 -0.037450634 -0.002118316
000250 19 25 09 3c ea 6c e7 bc 53 34 07 3d a1 2a a5 bd
       0.008370661 -0.028250176 0.033008885 -0.080647714
000260 a7 6d 5d bd 6e 65 26 3d 0b 55 ea bc 78 a4 48 bd
       -0.05405965 0.040624075 -0.028605005 -0.048984975
000270 e3 c7 2f 3d a4 a6 85 3d b1 16 77 3d 38 32 a5 bd
       0.042915236 0.06525925 0.060324375 -0.08066219
000280 19 18 93 bd 95 9d 40 be 72 89 b3 bd 25 74 24 be
       -0.07182331 -0.18810113 -0.0876645 -0.1605993
000290 73 d5 2a bc 32 f8 c7 bd 47 b4 d7 3d 22 43 1e 3d
       -0.010426867 -0.097641364 0.10532432 0.03863824
0002a0 3c 4b b9 bd 57 9e 95 bd 4d 5a bc bc fd 4e 55 bd
       -0.09047553 -0.073055916 -0.022992278 -0.052077282
0002b0 4a 42 cf bc 4e cb 4f 3d 12 33 95 3d 12 da bc bd
       -0.025300164 0.050730996 0.072851315 -0.09221281
0002c0 5c 06 6e bd 10 ed 8c bd 8d dd f1 bc 72 f0 86 bc
       -0.058111534 -0.068811536 -0.029524589 -0.016472075
0002d0 d5 0b 27 3d 2c 7d 25 3d 82 3e 68 bd ce 33 3a bd
       0.04078277 0.040402576 -0.056700237 -0.04545956
0002e0 91 50 80 3c 7e 76 5f 3d 87 9e 1d 3d 7c 6b b0 bd
       0.015663417 0.054556362 0.03848126 -0.08614251
0002f0 f3 83 01 be 3a b7 de bc 69 18 df 3c 38 ca 98 bd
       -0.12647991 -0.027186979 0.02723332 -0.07460445
000300 20 92 a3 3a 9f 8a 28 bd 0a 93 af bd ec 3a 17 bc
       0.0012479462 -0.041147824 -0.08572967 -0.009230357
000310 0f ce 89 3c 68 8e 9e bc eb b1 13 bd 62 12 b8 3c
       0.01682189 -0.019355014 -0.036058348 0.022469703
000320 63 e3 40 bc a3 bb 26 bd 96 09 4e 3b 16 0e 05 bd
       -0.011772963 -0.040706288 0.003143882 -0.032484137
000330 6c 41 06 bc 73 c8 88 bd 0e e2 e6 3b 22 c6 1e bd
       -0.008194309 -0.06678858 0.007045991 -0.038763173
000340 eb 25 f2 3d f2 d4 5c ba 24 f4 9b bd c8 6f 16 3d
       0.118236385 -0.00084240653 -0.076149255 0.036727697
000350 d8 96 dd bc 6a a6 30 bd a9 4f e0 bc e3 b4 03 bd
       -0.027049467 -0.043127455 -0.027381735 -0.03215493
000360 fa d4 95 3d 79 54 76 3c 28 e3 0c bc 60 a0 bd 3d
       0.07316013 0.015034788 -0.00859908 0.09259105
000370 c5 11 f3 bc eb b8 71 bd 4c 74 48 3d de 1a 80 bd
       -0.02967156 -0.059014242 0.048939034 -0.062551245
000380 94 70 e6 bd a5 d0 2a 3b 96 e8 74 bd 62 00 99 bd
       -0.11251941 0.0026064303 -0.059792124 -0.07470776
000390 5d ab 81 bd 3e 91 52 3d 8c 51 0a 3e c9 b0 87 bc
       -0.06331513 0.051408045 0.1350767 -0.01656379
0003a0 5f e0 e1 3c 63 8d 74 bd 58 85 f3 3c cd 80 0b be
       0.027572809 -0.05970515 0.02972667 -0.13623352
0003b0 36 c3 25 bc 43 0d 54 bc d0 40 01 3d 70 b5 27 3c
       -0.010117343 -0.012942615 0.03155595 0.010236129
0003c0 70 27 80 ba 98 f4 1f be af 35 15 be 0f d7 28 bd
       -0.0009777378 -0.15620649 -0.1457126 -0.04122072
0003d0 88 4b 58 bb 65 ca 9f bc 51 aa 68 3d 08 5f 9d 3d
       -0.0033004005 -0.019505689 0.05680305 0.076841414
0003e0 e9 3d b6 3c 8d 85 d7 bc 82 ec 74 3c 91 eb 9b 3d
       0.022246318 -0.0263088 0.014948966 0.0761329
0003f0 25 fe 2b bb d3 37 a5 bc 85 30 37 bd 31 86 8c 3a
       -0.0026244011 -0.02016822 -0.044724006 0.0010721144

block_2.0.bias f4 [16]
000000 9f e6 7b 3d 5b 56 61 3e db 42 3f bc 09 33 7a 3d
       0.061499234 0.22005598 -0.011673654 0.061083827
000010 04 c8 09 bd 5d 95 13 3e 39 ef 9c bb f5 b3 81 bb
       -0.033638015 0.14412446 -0.0047892598 -0.00395822
000020 18 f0 d9 bb 45 af 1d bd d4 c8 4d 3e 74 52 a3 bb
       -0.006650936 -0.03849723 0.20096141 -0.0049841944
000030 da f8 ad bc 6b 25 84 3c 0c 0e f6 3d b0 fb 10 3e
       -0.021236826 0.016131124 0.12014398 0.14158511

block_2.2.weight f4 [16]
000000 70 84 3d bf 2c ef 5e 3f 27 c1 8b 3f a9 61 5a bf
       -0.7403021 0.870837 1.091832 -0.8530527
000010 15 06 19 bf b7 cc 4b bf 7f 39 5d bf 2f 67 8d bf
       -0.59774905 -0.79609245 -0.8641586 -1.1047114
000020 f5 d3 96 3f 19 ca 23 bf 9b 68 4f 3f 84 a5 82 3f
       1.1783434 -0.6398025 0.8101899 1.0206761
000030 2a 28 96 3f cf 55 83 bf 08 08 55 bf 71 70 54 3f
       1.1731007 -1.0260562 -0.8321538 0.8298407

block_2.2.bias f4 [16]
000000 92 f9 97 be dd aa 82 3e eb 1a a6 3e f1 86 9f 3e
       -0.29682595 0.25520983 0.32442412 0.3115764
000010 cb dc f8 3e f5 92 c7 3e 32 a6 a1 be f8 de b1 be
       0.48605952 0.38979307 -0.3157211 -0.34740424
000020 d2 e8 da 3e 89 a4 af 3e a1 89 b8 be 87 6c 93 3e
       0.42755753 0.34305218 -0.36042503 0.28793737
000030 33 28 bb 3e 84 1a d1 be 2f 87 6f 3e c8 71 d8 be
       0.36554107 -0.40840542 0.23391412 -0.42274308

block_2.2.running_mean f4 [16]
000000 31 9f bf 3d 4e 70 96 3e 7e 80 13 3c 9c b3 c3 3d
       0.09356535 0.29382557 0.009002803 0.09555742
000010 23 39 93 3b b5 b4 20 3e ea 6a b8 3b e2 3c cf 3b
       0.004492895 0.15693934 0.0056279795 0.0063243965
000020 4e 98 07 3c 09 3c a4 3b 1b 5e 4b 3e 16 a6 38 3c
       0.008276058 0.0050120396 0.19860117 0.011270067
000030 e3 b4 ec 3b e3 84 d9 3b 7d bd fb 3d 38 af 05 3e
       0.007223712 0.006638156 0.122920014 0.13055122

block_2.2.running_var f4 [16]
000000 61 52 09 3c d0 b9 25 3c b2 64 21 3a c3 15 b1 3b
       0.008381457 0.010115102 0.00061566674 0.0054042055
000010 61 b7 61 39 4a 46 24 3c 83 3c 9c 39 40 96 c2 39
       0.00021525986 0.010026524 0.00029799723 0.00037114508
000020 d9 6d 0c 3a 1a 53 8b 39 cd 77 72 3c 9b ba 42 3a
       0.0005356945 0.00026574061 0.014799071 0.0007428319
000030 03 8e d9 39 a2 1d bb 39 fd a1 05 3c ea 94 05 3c
       0.00041495272 0.00035689498 0.008156297 0.00815318

output_conv.0.weight f4 [16, 1, 4, 4]
000000 db 6f 61 3d 53 47 65 bd 0a 98 3c 3f f6 bc a0 be
       0.055038314 -0.055976223 0.73669493 -0.31394166
000010 d8 15 5c 3f 7d 3b 14 3f a3 db 8c 3f ef ae 11 3e
       0.8597083 0.5790327 1.1004528 0.14226888
000020 87 c7 9d be af e8 f5 bd 78 5b 93 3e ab a4 19 be
       -0.3081629 -0.120072715 0.28780723 -0.15004222
000030 b9 46 bd 3e e7 b7 9d 3e ff 1b 38 3f 76 ee fc 3e
       0.3696802 0.3080437 0.7191772 0.4940068
000040 94 85 91 3e 22 3e 1e bf 1c cc 30 be 6e 6b 24 bf
       0.28422225 -0.6181356 -0.17265362 -0.64226425
000050 59 dd 37 bf 0f 7e 61 bf 13 10 2d bf d5 84 58 bf
       -0.71822125 -0.88082975 -0.6760265 -0.84577686
000060 28 94 b1 3e fe 86 cc be 6d 73 61 3e db 07 43 bd
       0.34683347 -0.3994674 0.22016688 -0.047614913
000070 da 79 d1 be a0 db 4e be cb 62 10 3f 33 bc 85 be
       -0.40913278 -0.20200968 0.56400746 -0.26120147
000080 0c 44 15 3d b1 63 58 3e 59 9a f3 3d fd 04 2d bd
       0.036441848 0.21131779 0.11894674 -0.042241085
000090 b1 da 96 bf 3a f8 5f bf 3c 07 6a bf 45 cc f6 be
       -1.1785489 -0.8748814 -0.9141729 -0.4820272
0000a0 1b c0 e8 bf f3 96 0f c0 e9 c1 ff bf 85 b9 84 be
       -1.8183626 -2.2435882 -1.9981052 -0.2592279
0000b0 a8 b7 7b bf da d7 16 c0 09 99 86 bf 69 7f 01 bd
       -0.9832711 -2.3569245 -1.0515453 -0.03161565
0000c0 74 8b b8 3c 8e c5 4b be 41 cf 19 bf 68 b6 50 be
       0.022527434 -0.1989958 -0.6008187 -0.20382082
0000d0 ce 52 85 bf 30 c7 e2 be e1 ce 57 bd ec f5 6a 3f
       -1.0415895 -0.44292593 -0.05268753 0.91781497
0000e0 8f 68 f6 be 43 71 22 bf f9 4c da be ed b6 37 be
       -0.48126647 -0.63454074 -0.4263685 -0.17940874
0000f0 e8 d4 ef be 49 ac 8a be 6b 63 21 3e dc c3 c7 bd
       -0.46842122 -0.27084568 0.15760581 -0.09754154
000100 a4 6c bc 3e 49 91 ea 3e 72 9a 91 3e 61 ad 42 3e
       0.36801636 0.4581397 0.28438145 0.19011451
000110 ea 05 02 be 74 f6 e0 be b2 79 cb be f5 7f 1a be
       -0.12697569 -0.4393803 -0.39741284 -0.15087874
000120 9d 76 fc be d1 89 43 bf f9 d2 64 bf 75 7a 36 bf
       -0.49309245 -0.76382166 -0.8938442 -0.71280605
000130 e2 8e f4 3d 22 74 0d 3e d3 e5 48 bd 92 df 7d bd
       0.11941315 0.13813832 -0.049047302 -0.06198079
000140 37 d8 2c be 62 fe e7 be 42 6d f6 be 84 f9 db be
       -0.16879354 -0.45311266 -0.48130232 -0.42963803
000150 20 8f b4 3e 42 87 87 be 0a 3d 77 be 64 86 00 bf
       0.35265446 -0.2647038 -0.24144378 -0.50205064
000160 32 80 11 be 2b f1 1d bf ee 8a 5d bf 5c b4 67 bf
       -0.14209059 -0.6169612 -0.86540115 -0.9050958
000170 61 83 70 be 76 ed ac bf 61 59 3f bf 04 2e db be
       -0.23487617 -1.3509967 -0.74745756 -0.42808545
000180 a9 a6 34 3e 28 23 a0 3f 75 90 b5 be ea a9 70 bb
       0.17641701 1.2510729 -0.35461774 -0.003672237
000190 ee 5b a1 3c e4 a6 e6 3f 3e ea 08 bf 6c 92 29 be
       0.019697156 1.8019681 -0.53482425 -0.16559762
0001a0 0a 26 ef bd bc 77 a5 3f b9 97 23 bf 73 07 89 be
       -0.11677177 1.2927165 -0.63903385 -0.26763496
0001b0 83 11 9d be 34 b4 1a 3f c4 eb 08 bd 35 1e 28 bd
       -0.30677423 0.6043122 -0.03342797 -0.041044433
0001c0 8f 0d 24 bd d3 fe 87 3e 14 8e 85 3e a0 e1 9a 3e
       -0.040051993 0.26561603 0.2608496 0.30250263
0001d0 74 6e 0b 3e 3a 50 a8 3f 96 81 37 3f bc cf 61 3f
       0.13616353 1.3149483 0.7168211 0.882076
0001e0 71 7e 87 3d c5 f3 05 40 01 a7 2c 40 ba 5f 12 40
       0.06615914 2.0930035 2.697693 2.2870927
0001f0 6c ea 9d be 17 46 08 3f 28 a5 41 3f 15 ea 48 3f
       -0.30842912 0.5323195 0.75642633 0.7848218
000200 0c be 24 bf f5 1f 94 bf 9b 9c f1 be cd fb d3 be
       -0.6435249 -1.1572253 -0.47189793 -0.41403046
000210 c3 bd 37 bf 3a 94 11 c0 ae 0c eb bf 25 30 07 bf
       -0.7177393 -2.274672 -1.8363245 -0.5280784
000220 8f 96 33 bf d6 3d b7 bf f8 eb a0 bf e6 a6 be bd
       -0.7015161 -1.4315746 -1.2572012 -0.09309177
000230 18 bd 39 be fc d7 4b 3e 98 db c7 3e 10 b8 5b 3e
       -0.1813854 0.1990661 0.39034724 0.21456933
000240 8b 05 ca be 38 f8 e3 be 88 9e 02 bf 9a 0b b9 be
       -0.39457354 -0.44525313 -0.5102315 -0.36141664
000250 41 4c 47 bf 46 4e 55 bf c3 d6 fd be 9e 33 aa bd
       -0.7785073 -0.8332256 -0.49577913 -0.083106264
000260 e6 b8 2e be 0d c2 01 3e 25 92 a3 bd 9f 8f 25 3e
       -0.1706272 0.12671681 -0.07986859 0.16168068
000270 e6 2d 16 3e 09 c7 66 3d 24 ec bf 3d 31 e4 90 3c
       0.14665946 0.05634216 0.09371212 0.017686935
000280 0a 3d 20 3f d0 8a 0a 3f cc bc 39 3f 68 a6 6b 3f
       0.6259314 0.5411806 0.72553706 0.9205079
000290 79 df d2 3e 07 3d 48 3f fb a3 06 3f e4 31 21 3f
       0.4118612 0.7821812 0.52593964 0.6296675
0002a0 05 04 3e 3e 80 38 fb 3e 7e ae 84 3f 64 39 0a 3f
       0.18556221 0.49066544 1.0365751 0.5399382
0002b0 6e 16 86 bd c8 9e c7 be bc 22 07 3f 4f 82 33 3e
       -0.06547247 -0.38988328 0.52787375 0.17530178
0002c0 22 82 c7 be 83 76 91 bd bf 71 1c bf 7d 19 46 bf
       -0.3896647 -0.071026824 -0.6111106 -0.7738264
0002d0 01 ce 7d bf 89 0e 2f bf 1e 1b 90 bf ff 89 c4 bf
       -0.9914246 -0.68381554 -1.1258276 -1.5354613
0002e0 d7 2d f0 be a3 44 50 bf 82 cd b6 bf ec df 9f bf
       -0.46909973 -0.8135473 -1.4281466 -1.249021
0002f0 3b 95 0a bf 1c 43 28 be 3b a7 12 bf 11 1c c3 be
       -0.5413396 -0.1643185 -0.57286423 -0.3810735
000300 e7 3e 0c bf b7 5e 5b bf a0 98 17 bf e3 48 0b bf
       -0.5478348 -0.856914 -0.5921726 -0.5440809
000310 04 6e 05 bf c1 fb 0f c0 cb f7 e5 bf 08 cc 2c bf
       -0.52120996 -2.2497408 -1.7966245 -0.67498827
000320 ac b8 07 bf 36 af 09 c0 e4 1a 03 c0 c6 9d 29 bf
       -0.5301616 -2.151319 -2.0485163 -0.6625637
000330 95 ec d4 be 2e 07 00 c0 85 4b e3 bf 07 28 ed be
       -0.41586748 -2.0004382 -1.7757422 -0.463196
000340 6f 70 6f be 0d f9 a7 3d 14 c1 82 3f 59 93 b3 be
       -0.23382734 0.082017995 1.0215173 -0.35073355
000350 24 eb 81 be 5d 79 0c bd d8 26 9f 3f e0 5b 04 bf
       -0.2537471 -0.03429543 1.2433729 -0.5170269
000360 c7 96 a8 be 86 9b 24 3e 05 80 b2 3f a6 bb 82 be
       -0.32927534 0.16074952 1.3945318 -0.2553379
000370 da 37 80 bd 7f a2 01 3e 0c 39 71 3f 08 c7 b1 bd
       -0.06260653 0.12659644 0.9422767 -0.0868054
000380 04 ef 6a bf 09 f9 43 be 62 5e 5f 3e c6 9c 03 3f
       -0.9177096 -0.19137968 0.21813348 0.5141109
000390 39 11 3c bf 43 25 51 bf 8f 1a 9b be 7c 55 2d bf
       -0.7346378 -0.8169748 -0.302937 -0.67708564
0003a0 87 b5 91 bf 39 29 3b bf 27 e0 cf 3e 80 ee 71 3e
       -1.1383523 -0.73109776 0.40600702 0.23626137
0003b0 d0 47 84 be 5b a2 1a bf ee 25 58 bd 94 e0 6c 3d
       -0.2583604 -0.60403985 -0.052770548 0.057831362
0003c0 ee 16 11 bf 77 4f bb 3d 80 86 88 3d 38 15 c1 3d
       -0.5667561 0.09146016 0.06666279 0.09427875
0003d0 42 43 a4 3c f3 9b 4d 3f 05 b2 86 3f 1f 51 a9 bd
       0.020051602 0.80316085 1.0523077 -0.08267426
0003e0 7d 10 fe 3e 4c b6 61 3f 41 08 20 3f bb 39 58 be
       0.49621955 0.8816879 0.62512594 -0.21115772
0003f0 b6 7b c2 bd f9 95 74 bd 0d e2 88 3e 30 24 21 bb
       -0.09496252 -0.059713338 0.26734963 -0.002458822
