Models/DCGAN_discriminator.pt (torch, 264655 bytes, 7 tensors)

main.0.weight f4 [16, 1, 5, 5]
-0.09013764 -0.018138533 -0.048300166 0.12665342 -0.038317367 -0.17124717 -0.1549946 -0.09425957
-0.06824313 0.052543808 -0.15543456 0.019682527 -0.039818864 -0.075178914 0.0629051 -0.15417106
0.060108297 -0.073631324 -0.09952439 -0.14827074 -0.29089153 0.17107357 0.16763224 0.11600147
0.0717577 -0.16513884 -0.16976467 -0.19810688 -0.36116892 -0.12259732 -0.21193095 -0.04013834
-0.14886428 -0.21169044 -0.02289942 -0.21770631 -0.21893296 -0.19541931 -0.05976098 0.10057125
-0.1938351 -0.1542623 -0.0041544507 -0.06483699 0.018070012 -0.006963412 0.10679237 0.077919185
0.11161395 0.027924782 0.042606454 0.26394776 0.079666585 -0.0907673 -0.0026089642 -0.016563136
0.28888118 0.21613923 0.0031393971 0.050425418 0.02688284 0.28919652 0.12864603 0.017772155
0.036357343 -0.11164272 0.17813809 0.0599458 -0.13854928 -0.0608436 0.011224071 0.17880589
0.054416392 -0.06577576 -0.068843 0.02097246 -0.13579684 0.17780024 0.07341493 -0.13341618
0.14787766 -0.109808125 0.2012747 -0.13498929 -0.014415923 0.09278696 -0.25268278 0.16959758
-0.11948149 0.0020290199 0.11553286 -0.10308891 0.1086141 0.23654701 0.06881033 0.0738956
-0.13423714 0.049780663 -0.020246867 0.048823822 0.14964195 0.06582246 0.02502585 0.019625947
0.049733613 -0.12522233 -0.09546756 -0.06202386 -0.07916784 -0.10503242 0.09211621 -0.009856151
-0.031476945 0.04655718 -0.0039199945 0.17588341 0.04519288 0.0872574 -0.025376763 0.0288155
0.13808477 0.06297727 0.02045441 0.013503826 0.03898282 0.011069098 0.06319428 -0.049126714
0.12887655 -0.015040719 0.13652706 0.16823731 0.1030439 0.0054666535 0.06725676 -0.0019973775
0.14607167 0.076777875 0.011242468 -0.0067289425 -0.023364034 0.111828946 0.010142534 0.11874813
-0.019614235 0.0054586004 0.11614513 0.12116463 0.09071863 -0.0036900076 0.09076938 -0.035618816
-0.09639299 0.038262304 -0.009840584 -0.051143423 -0.11322635 -0.16219169 0.058381215 -0.05380978
0.113832116 0.02917821 -0.013845369 0.22553313 0.027765667 0.0039554196 -0.024444602 -0.05132631
0.2267061 0.08246157 -0.035237674 -0.09802923 -0.12043723 0.11972083 -0.06746244 -0.118319444
-0.08378676 -0.17671946 -0.0065231626 0.010908713 -0.16094641 -0.13087507 -0.18592733 0.05072031
-0.048853777 0.013812013 0.013395191 -0.055145424 0.0083285095 0.016638715 0.094811976 0.1769433
0.18240471 0.10055659 -0.033662915 0.018787801 0.11581604 0.06003139 0.111594476 -0.0903387
0.025485251 -0.036966607 -0.1394471 -0.0059521557 0.017094815 -0.18308021 -0.08679641 -0.008008702
-0.013608817 -0.18121925 -0.11277996 -0.010973122 -0.03817183 -0.1664556 -0.17809889 -0.052785642
0.060638964 -0.016432105 -0.06506451 -0.054643624 -0.013243301 -0.0248826 0.003498205 0.10151605
0.037269607 0.08299803 -0.15486652 -0.16117205 -0.19214387 -0.06264749 0.15100357 -0.09833713
0.017090226 0.05380821 0.1910108 0.19433624 0.027519783 0.03237936 0.044223305 -0.054694895
0.18310387 0.0042385226 0.06952693 -0.13129567 0.061269827 0.014762817 -0.0034185897 -0.05810047
-0.007427892 0.027640488 0.06619596 -0.060373157 -0.010011717 -0.033038277 0.048234865 -0.07038795
00000000: 159a b8bd 4397 94bc 65d6 45bd 6fb1 013e
00000010: acf2 1cbd 6b5b 2fbe e8b6 1ebe 290b c1bd
00000020: 0ec3 8bbd 2d38 573d 3d2a 1fbe 403d a13c
00000030: 1b19 23bd 67f7 99bd 64d4 803d 05df 1dbe
00000040: 1e34 763d 05cc 96bd 72d3 cbbd 49d4 17be
00000050: bcef 94be e92d 2f3e c9a7 2b3e 2e92 ed3d
00000060: b3f5 923d 281a 29be cad6 2dbe 88dc 4abe
00000070: 22eb b8be 4e14 fbbd 6d04 59be 1a68 24bd
00000080: e16f 18be 61c5 58be 9097 bbbc 67ee 5ebe
00000090: f62f 60be 001c 48be eec7 74bd 4df8 cd3d
000000a0: b57c 46be f0f6 1dbe 0f22 88bb 41c9 84bd
000000b0: 9007 943c 552d e4bb f5b5 da3d 1894 9f3d
000000c0: db95 e43d 83c2 e43c 1b84 2e3d 2924 873e
000000d0: 3c28 a33d 35e4 b9bd 28fb 2abb 6aaf 87bc
000000e0: 3ce8 933e 9a53 5d3e 58be 4d3b e28a 4e3d
000000f0: 6739 dc3c 9111 943e c9bb 033e e996 913c
00000100: 70eb 143d f0a4 e4bd d569 363e ba89 753d
00000110: dddf 0dbe 2437 79bd 2ae5 373c e418 373e
00000120: b9e3 5e3d 71b5 86bd 8ffd 8cbd 70ce ab3c
00000130: 540e 0bbe 4411 363e 915a 963d 409e 08be
00000140: 3e6d 173e 15e3 e0bd f41a 4e3e a23a 0abe
00000150: c330 6cbc 1707 be3d a35f 81be fdaa 2d3e
00000160: b6b2 f4bd 4ef9 043b 7e9c ec3d 4720 d3bd
00000170: 1271 de3d 6139 723e 6eec 8c3d 9456 973d
00000180: 7675 09be cfe6 4b3d c2dc a5bc 7dfb 473d
00000190: bd3b 193e edcd 863d 0303 cd3c 98c6 a03c
000001a0: 79b5 4b3d 483a 00be 7f84 c3bd bb0c 7ebd
000001b0: c022 a2bd 3d1b d7bd 6ca7 bc3d b27b 21bc
000001c0: f8ed 00bd beb2 3e3d 4c73 80bb c81a 343e
000001d0: 2b1c 393d 02b4 b23d eee2 cfbc 7c0e ec3c
000001e0: 1866 0d3e 3afa 803d 0290 a73c 273f 5d3c
000001f0: 73ac 1f3d 295b 353c 016c 813d 1839 49bd
00000200: 37f8 033e 596d 76bc c0cd 0b3e 6746 2c3e
00000210: ae08 d33d 9d21 b33b eabd 893d 6fe6 02bb
00000220: d093 153e b83d 9d3d 5432 383c 767e dcbb
00000230: ee65 bfbc 9306 e53d df2c 263c 3832 f33d
00000240: 08ae a0bc 0fde b23b 7fdd ed3d 2925 f83d
00000250: b0ca b93d 0ed4 71bb 4ce5 b93d 09e5 11bd
00000260: b069 c5bd efb8 1c3d 673a 21bc c47b 51bd
00000270: 37e3 e7bd 9415 26be 2421 6f3d a567 5cbd
00000280: d020 e93d 2407 ef3c b0d7 62bc 28f2 663e
00000290: d374 e33c 779c 813b 0c40 c8bc 893b 52bd
000002a0: a525 683e 9de1 a83d 6155 10bd 8dc3 c8bd
000002b0: cba7 f6bd 3230 f53d bf29 8abd 7751 f2bd
000002c0: 6598 abbd f2f5 34be 41c0 d5bb 75ba 323c
000002d0: 23cf 24be 1d04 06be bc63 3ebe 1ac0 4f3d
000002e0: e61a 48bd c84b 623c 8177 5b3c 2be0 61bd
000002f0: 4d74 083c ea4d 883c c82c c23d a030 353e
00000300: 4dc8 3a3e 9df0 cd3d 20e2 09bd e0e8 993c
00000310: f630 ed3d 7ae3 753d a58b e43d 7f03 b9bd
00000320: 72c6 d03c 4c6a 17bd 38cb 0ebe 4d0a c3bb
00000330: 6d0a 8c3c 6179 3bbe 51c2 b1bd ee36 03bc
00000340: 84f7 5ebc 8a91 39be 2ef9 e6bd 9cc8 33bc
00000350: 115a 1cbd 5673 2abe 8e5f 36be c235 58bd
00000360: 9060 783d 9f9c 86bc 8b40 85bd fed1 5fbd
00000370: 6efa 58bc 98d6 cbbc 2442 653b a6e7 cf3d
00000380: 04a8 183d dffa a93d 5495 1ebe 490a 25be
00000390: 5dc1 44be 544d 80bd aea0 1a3e fa64 c9bd
000003a0: cd00 8c3c ff65 5c3d 5698 433e 1400 473e
000003b0: 2b71 e13c 38a0 043d 7f23 353d c107 60bd
000003c0: 957f 3b3e 4ee3 8a3b 2364 8e3d 5f72 06be
000003d0: 12f6 7a3d bedf 713c 6b0a 60bb c2fa 6dbd
000003e0: ad65 f3bb 4e6e e23c bf91 873d d849 77bd
000003f0: 2f08 24bc 2553 07bd ec91 453d 8f27 90bd

main.0.bias f4 [16]
-0.0017207315 0.06973944 -0.016954616 0.00065455947 0.08129237 -0.028241362 0.07392881 0.07032273
0.017285505 0.09973691 -0.0029717935 0.016651943 -0.027188314 -0.043655742 0.06403164 0.09377362
00000000: 2b8a e1ba 8dd3 8e3d 68e4 8abc be96 2b3a
00000010: 9d7c a63d 6e5a e7bc fd67 973d 5d05 903d
00000020: 559a 8d3c dd42 cc3d 6cc2 42bb a869 883c
00000030: 07ba debc 5dd0 32bd 0523 833d 620c c03d

main.2.weight f4 [32, 16, 5, 5]
-0.09047729 0.04653234 -0.090927824 -0.19545689 -0.2699621 0.0081802085 -0.02403135 -0.0021048111
-0.11719606 -0.010884422 0.097153716 -0.10427217 -0.003807986 -0.2203883 -0.08795262 -0.010378816
-0.007248622 -0.10089093 -0.21995977 -0.00465292 -0.025073688 -0.040612314 -0.05435168 -0.1217003
0.0100522395 0.092380464 0.038496345 0.18404275 0.10098292 -0.032037146 0.15538815 0.14353603
0.07725863 0.19236454 -0.02497706 0.08970248 0.1344747 -0.076403975 0.22767472 0.06164077
0.09818218 0.12625445 0.037346747 0.2500282 0.094413474 0.10366189 0.11373232 0.0040207272
0.032324597 0.10191757 0.011142668 0.1628791 0.050398007 -0.09536134 0.05521913 -0.11824822
0.011688522 -0.08629628 0.031962685 -0.13728672 -0.0780509 0.0064796503 0.08626777 0.08906575
-0.08742877 -0.10239385 0.048168425 -0.087257765 0.09583191 -0.038312595 0.0846728 0.06906124
-0.060832143 0.09015452 0.023081273 -0.06254271 -0.10653845 -0.09492425 -0.09940971 -0.12069403
0.07422883 -0.028446587 -0.12434264 -0.12316308 -0.012811213 0.039019678 0.016935475 -0.12866265
0.058453385 0.051810123 0.047844626 0.016730206 -0.07533172 -0.12465899 -0.032889966 -0.061248433
-0.036909454 -0.015830735 -0.15515839 -0.050877925 -0.031714324 -0.10232055 -0.030497096 -0.12083665
0.0371797 0.03707193 -0.058861703 0.048812427 0.046875574 -0.065916725 -0.007737062 1.1573171e-05
-0.04215341 -0.103994176 0.026537038 -0.004352926 0.012667236 -0.02467337 -0.096170425 0.07651984
0.05445545 -0.05579923 -0.013890254 0.025853071 -0.022552038 0.098449565 -0.042313144 0.01736569
0.0668715 0.11558367 -0.078817554 -0.016925381 0.059085518 0.042195044 -0.091427326 0.0772468
0.006729377 -0.08113657 -0.101895824 0.10184207 0.04058404 -0.048780855 0.06982507 0.025890265
0.055600606 -0.11359704 0.06528753 0.05192318 0.08138692 0.07643637 -0.09192572 -0.06618704
0.012566027 -0.08621012 0.06595099 0.039124493 -0.07115246 0.018755987 -0.015561434 -0.040876076
-0.04783359 -0.075844646 0.039137907 -0.05979302 -0.012912165 0.009607471 0.03970863 -0.055730972
-0.10459432 -0.041890826 0.019040383 0.11163704 -0.067810215 -0.020851402 -0.06672462 -0.103392445
-0.1390962 -0.09289 -0.075089395 -0.067133635 -0.04315391 0.043633047 0.03552872 -0.13491073
-0.08641347 -0.02370968 -0.0067611593 -0.052401148 -0.13800037 -0.1143875 0.021523314 -0.06425299
0.012628243 -0.13659708 -0.18532275 -0.016593881 0.01110492 0.034446254 -0.07372353 -0.071594924
0.079417095 0.061653208 0.22388695 0.14850676 0.003422826 0.02763284 0.204267 0.1475149
0.14043339 -0.038138162 0.19792674 0.1306467 0.003944773 0.20743899 0.052399952 0.114324786
0.2313195 0.3632589 0.21578784 -0.016213 0.07301007 0.08176742 0.06384449 0.1147604
-0.039968517 0.048889183 -0.034265365 -0.019724004 -0.03760175 0.060158003 0.05347751 -0.11771201
0.04775067 0.00861678 -0.09844833 0.039076816 -0.07866696 -0.10083675 -0.09392955 0.031774502
0.0359652 0.046120614 -0.11263704 -0.0429654 -0.045067504 0.08158206 -0.07496834 -0.07270682
-0.050480887 -0.028622378 -0.08384509 -0.15619662 0.010137696 -0.008400999 0.038056403 -0.083565384
00000000: 284c b9bd b298 3e3d 5e38 babd da25 48be
00000010: 7938 8abe 4806 063c 65dd c4bc dff0 09bb
00000020: 7d04 f0bd 9354 32bc 87f8 c63d a68c d5bd
00000030: 678f 79bb 78ad 61be 8120 b4bd e90b 2abc
00000040: d985 edbb e79f cebd 223d 61be 8677 98bb
00000050: 5667 cdbc 1959 26bd de9f 5ebd 023e f9bd
00000060: 26b2 243c f831 bd3d 58ae 1d3d b475 3c3e
00000070: 22d0 ce3d 6239 03bd 121e 1f3e 1cfb 123e
00000080: c639 9e3d 36fb 443e b19c ccbc efb5 b73d
00000090: bcb3 093e b079 9cbd 9023 693e 087b 7c3d
000000a0: bd13 c93d d948 013e e7f8 183d b203 803e
000000b0: da5b c13d af4c d43d 7eec e83d 4ec0 833b
000000c0: cc66 043d 29ba d03d bd8f 363c c7c9 263e
000000d0: 246e 4e3d ce4c c3bd 742d 623d 1f2c f2bd
000000e0: 3781 3f3c 1bbc b0bd 4eeb 023d e494 0cbe
000000f0: 26d9 9fbd 3f53 d43b 28ad b03d 1b68 b63d
00000100: db0d b3bd deb3 d1bd 414c 453d 33b4 b2bd
00000110: 8543 c43d abed 1cbd ef68 ad3d fb6f 8d3d
00000120: 202b 79bd efa2 b83d f014 bd3c 6416 80bd
00000130: d530 dabd a567 c2bd 5197 cbbd 6e2e f7bd
00000140: 4905 983d d108 e9bc 5ba7 febd ed3c fcbd
00000150: 1fe6 51bc 19d3 1f3d 44bc 8a3c 24c0 03be
00000160: d16c 6f3d da36 543d baf8 433d c90d 893c
00000170: 8447 9abd 364d ffbd a1b7 06bd a3df 7abd
00000180: 5e2e 17bd 75af 81bc d7e1 1ebe 5f65 50bd
00000190: e1e6 01bd 708d d1bd 0cd5 f9bc 3579 f7bd
000001a0: be49 183d bcd8 173d f818 71bd 8aef 473d
000001b0: 9a00 403d 59ff 86bd 2e87 fdbb 642a 4237
000001c0: 0ea9 2cbd e6fa d4bd 3464 d93c fda2 8ebb
000001d0: 3d8a 4f3c cf1f cabc 00f5 c4bd 6fb6 9c3d
000001e0: ae0c 5f3d bc8d 64bd f393 63bc d2c9 d33c
000001f0: 0dbf b8bc ed9f c93d 8c50 2dbd 7e42 8e3c
00000200: edf3 883d 22b7 ec3d 196b a1bd 19a7 8abc
00000210: a803 723d b6d4 2c3d 403e bbbd 9233 9e3d
00000220: 1b82 dc3b ee2a a6bd c2ae d0bd 9392 d03d
00000230: 733b 263d 6fce 47bd 7200 8f3d d217 d43c
00000240: 76bd 633d 91a5 e8bd 78b5 853d 67ad 543d
00000250: 2fae a63d ac8a 9c3d 8d43 bcbd 128d 87bd
00000260: bde1 4d3c ee8e b0bd 5011 873d 0141 203d
00000270: 62b8 91bd 28a6 993c 63f5 7ebc ac6d 27bd
00000280: 28ed 43bd 7054 9bbd 124f 203d 87e9 74bd
00000290: 8c8d 53bc a768 1d3c 84a5 223d 2946 64bd
000002a0: 8c35 d6bd b795 2bbd 94fa 9b3c f6a1 e43d
000002b0: 15e0 8abd 8fd0 aabc eba6 88bd 6bbf d3bd
000002c0: 3c6f 0ebe 1d3d bebd 78c8 99bd 5c7d 89bd
000002d0: 28c2 30bd 91b8 323d 9086 113d 0a26 0abe
000002e0: 8cf9 b0bd ce3a c2bc b78c ddbb 96a2 56bd
000002f0: f84f 0dbe fe43 eabd a951 b03c 1297 83bd
00000300: b1e6 4e3c 1be0 0bbe 3fc5 3dbe e4ef 87bc
00000310: 69f1 353c 8417 0d3d 5dfc 96bd 5ca0 92bd
00000320: 6ea5 a23d 1388 7c3d 9f42 653e 2812 183e
00000330: 7e51 603b 445e e23c 5e2b 513e 250e 173e
00000340: c5cd 0f3e c336 1cbd 4fad 4a3e 40c8 053e
00000350: 2843 813b e36a 543e 55a1 563d 1d23 ea3d
00000360: 05df 6c3e 12fd b93e 7df7 5c3e 20d1 84bc
00000370: 4e86 953d ad75 a73d e6c0 823d 8007 eb3d
00000380: 07b6 23bd 0640 483d d759 0cbd 3c94 a1bc
00000390: 4b04 1abd 3d68 763d 3c0b 5b3d ff12 f1bd
000003a0: 3596 433d 652d 0d3c 479f c9bd 030f 203d
000003b0: 251c a1bd 7f83 cebd 235e c0bd fb25 023d
000003c0: 3f50 133d f8e8 3c3d 40ae e6bd 7dfc 2fbd
000003d0: b498 38bd 7f14 a73d 0089 99bd 50e7 94bd
000003e0: 0cc5 4ebd 7a79 eabc f9b6 abbd 02f2 1fbe
000003f0: 9418 263c 58a4 09bc 08e1 1b3d 5424 abbd

main.2.bias f4 [32]
0.037564043 0.09454437 0.017272167 0.040584054 -0.018804414 -0.008653773 0.082878776 -0.084659085
0.04605612 0.021227261 0.048700668 -0.0082559055 0.074135736 0.049011625 0.057239626 -0.004370486
0.06861601 0.023743916 0.039669223 -0.084913366 0.07878982 -0.039390232 0.019812303 -0.030108856
0.112422615 -0.02752198 -0.01788089 0.051936593 0.055816405 -0.0036760347 0.07279262 -0.0842339
00000000: c1dc 193d 7ba0 c13d 5c7e 8d3c 773b 263d
00000010: b70b 9abc 8ec8 0dbc 59bc a93d be61 adbd
00000020: 58a5 3c3d cbe4 ad3c 5a7a 473d c743 07bc
00000030: 7ad4 973d 6ac0 483d 1974 6a3d 4b36 8fbb
00000040: 8d86 8c3d 9a82 c23c 327c 223d 0fe7 adbd
00000050: 8f5c a13d a757 21bd 694d a23c d9a6 f6bc
00000060: d43d e63d c775 e1bc f27a 92bc 77bb 543d
00000070: be9f 643d a1e9 70bb 4c14 953d d382 acbd

main.4.weight f4 [64, 32, 5, 5]
0.028746435 0.027882855 -0.18206945 0.035142723 0.11365241 0.10059031 -0.09578395 -0.107216336
0.046935137 0.03661918 -0.03582327 0.10595944 -0.12420503 -0.084607154 0.07844009 0.11854124
-0.031460013 -0.010444506 0.09020307 0.12816657 -0.07697437 0.04389838 -0.051942147 -0.073625356
0.12285888 -0.029964095 0.043085404 0.10779145 -0.00450291 -0.0023159767 -0.0334497 0.0023185944
0.03140483 -0.061146643 -0.12649038 -0.08937437 0.09419903 -0.025184767 -0.020356102 -0.06896232
0.11694867 -0.03994229 0.0026898263 0.038597807 -0.053971462 -0.041289505 -0.076436624 0.15057424
0.072493 -0.1142813 0.03257257 -0.06983598 -0.084970646 -0.022072122 -0.057107057 -0.1752901
-0.18238215 -0.026352128 -0.11351397 0.08190754 0.027723268 -0.122341454 -0.32477608 -0.115057625
-0.18159127 -0.1239307 -0.35564443 -0.4880861 -0.18517679 -0.1876041 0.06007188 0.003169724
-0.15239194 -0.024618598 -0.018140271 -0.1413508 0.088574015 -0.08281709 -0.09011434 0.031029122
-0.13854197 -0.011188431 -0.112070724 0.20148604 0.08421036 0.119343445 0.04285271 -0.063993074
0.14414611 0.14597745 0.22627425 0.06965463 -0.044217434 0.043426484 0.024930878 0.05184336
-0.10319402 -0.08043258 -0.050231162 0.023378165 -0.09312572 -0.021835668 -0.055808064 -0.03907837
-0.040593892 0.28112632 0.14125647 -0.0334593 0.17703424 -0.046988424 0.034226887 -0.18186416
-0.1054417 0.039719876 0.03128165 -0.17387442 -0.15676337 -0.1834523 -0.09428252 -0.056628507
0.02628598 0.13954744 -0.06289028 0.10303536 -0.01953109 -0.0829469 0.02094008 -0.053992018
-0.08678693 0.22246419 -0.06693225 -0.106693946 -0.082873404 -0.10487934 0.0017697494 -0.026867226
0.03639534 -0.030718986 -0.137054 -0.08481385 0.20412697 -0.16904 0.0377983 -0.19007796
0.1800343 0.07885048 -0.24358612 -0.2676519 -0.21727936 0.0015410549 -0.16623215 0.06689245
0.04872114 0.054070573 0.049078885 0.018858302 -0.040122718 0.0961837 0.23976961 -0.090850234
-0.06493222 0.19459939 0.08482519 -0.015775133 0.014027466 -0.0143941585 0.032353524 -0.06993328
0.04804021 -0.16462186 -0.20558202 0.1461266 0.007829459 0.09373908 -0.023478309 -0.026657932
0.19258626 0.057996172 -0.054626018 0.011708828 -0.08004686 0.08563156 0.11360847 -0.113634095
-0.039430313 0.10252305 0.034623787 -0.152573 0.095612556 -0.003013583 0.14262393 0.09773319
-0.013004434 -0.027016679 -0.026970442 0.09405578 0.08612577 0.10932436 -0.0013292665 0.12342458
0.060920887 0.004139102 0.06235756 -0.107587576 -0.21358936 -0.027488364 -0.08707661 0.15905346
-0.19327883 -0.08373784 0.0185416 0.060111552 0.03985426 -0.033990093 0.07495523 -0.02437969
-0.09747612 0.050787713 0.02955231 -0.03538935 0.08727695 -0.038355716 -0.05643736 -0.052669305
0.0071586324 -0.09053397 0.108347975 0.12322076 -0.12103086 0.06777998 -0.012411227 -0.0029018654
0.07613178 -0.09680246 -0.10750079 0.01489365 -0.07604478 -0.013417093 -0.027330475 -0.018188149
0.0679564 0.035028625 -0.038444858 -0.09099092 -0.07725309 0.005042135 -0.008497524 -0.10821411
-0.11993324 -0.12105979 -0.17403571 -0.16982476 -0.09770038 -0.00045623642 -0.04678525 -0.06830573
00000000: a57d eb3c 966a e43c 6a70 3abe d1f1 0f3d
00000010: 98c2 e83d 4b02 ce3d 602a c4bd 3d94 dbbd
00000020: 0f3f 403d fefd 153d 6cbb 12bd 4301 d93d
00000030: 355f febd 8446 adbd 33a5 a03d c0c5 f23d
00000040: 37dc 00bd 6f1f 2bbc 63bc b83d 193e 033e
00000050: bda4 9dbd cace 333d 4ac1 54bd e4c8 96bd
00000060: 709d fb3d 4377 f5bc 527a 303d c4c1 dc3d
00000070: 268d 93bb a4c7 17bb 8d02 09bd 8ff3 173b
00000080: 5aa2 003d e774 7abd b286 01be e909 b7bd
00000090: 6ceb c03d 4950 cebc d7c1 a6bc 1e3c 8dbd
000000a0: c982 ef3d 879a 23bd cc47 303b bc18 1e3d
000000b0: 2e11 5dbd 2f1f 29bd ce8a 9cbd 2230 1a3e
000000c0: 3677 943d 500c eabd d16a 053d 2b06 8fbd
000000d0: 1705 aebd 98d0 b4bc 17e9 69bd 3f7f 33be
000000e0: 63c2 3abe 6be0 d7bc 037a e8bd 24bf a73d
000000f0: e81b e33c 288e fabd 0d49 a6be 55a3 ebbd
00000100: 10f3 39be 61cf fdbd 0717 b6be 6ce6 f9be
00000110: fc9e 3dbe 4a1b 40be ef0d 763d 25bb 4f3b
00000120: a20c 1cbe f1ac c9bc e89a 94bc 44be 10be
00000130: 4b66 b53d 029c a9bd de8d b8bd c930 fe3c
00000140: f2dd 0dbe ae4f 37bc 5685 e5bd 5b52 4e3e
00000150: 7b76 ac3d 566a f43d 5386 2f3d cd0e 83bd
00000160: 0a9b 133e 1d7b 153e 70b4 673e 16a7 8e3d
00000170: 571d 35bd f8df 313d d73b cc3c b459 543d
00000180: 6357 d3bd d6b9 a4bd 31bf 4dbd 9183 bf3c
00000190: b3b8 bebd b7e0 b2bc ff96 64bd a410 20bd
000001a0: c845 26bd caef 8f3e 89a5 103e 9e0c 09bd
000001b0: 7748 353e ef76 40bd 7e31 0c3d 993a 3abe
000001c0: d1f1 d7bd 4fb1 223d 3021 003d 230c 32be
000001d0: 9486 20be ebda 3bbe 3217 c1bd 4bf3 67bd
000001e0: b255 d73c 86e5 0e3e 9ecc 80bd 3404 d33d
000001f0: aaff 9fbc 10e0 a9bd 888a ab3c bc26 5dbd
00000200: 59bd b1bd a7cd 633e c713 89bd 5b82 dabd
00000210: 88b9 a9bd fbca d6bd f0f6 e73a a818 dcbc
00000220: 4813 153d 62a6 fbbc e257 0cbe e2b2 adbd
00000230: a906 513e d218 2dbe 64d2 1a3d cca3 42be
00000240: e95a 383e 5c7c a13d a46e 79be ab09 89be
00000250: 7b7e 5ebe 39fd c93a c338 2abe e9fe 883d
00000260: d18f 473d 1b79 5d3d f106 493d ba7c 9a3c
00000270: b857 24bd f6fb c43d 2a86 753e b00f babd
00000280: 2ffb 84bd 1045 473e d4b8 ad3d da3a 81bc
00000290: 75d3 653c 7ad5 6bbc 2185 043d 2e39 8fbd
000002a0: d0c5 443d a292 28be 1884 52be 36a2 153e
000002b0: 2247 003c 46fa bf3d 9555 c0bc bc61 dabc
000002c0: 5535 453e 658d 6d3d 88bf 5fbd 62d6 3f3c
000002d0: 9cef a3bd 995f af3d 8fab e83d feb8 e8bd
000002e0: ae81 21bd 9bf7 d13d acd1 0d3d 193c 1cbe
000002f0: 84d0 c33d 887f 45bb 020c 123e 5728 c83d
00000300: 8d10 55bc 1552 ddbc 1ef1 dcbc 51a0 c03d
00000310: b562 b03d 73e5 df3d c83a aeba 07c6 fc3d
00000320: 2e88 793d 4ea1 873b a46a 7f3d e056 dcbd
00000330: 2bb7 5abe 472f e1bc 3955 b2bd e9de 223e
00000340: e3ea 45be bf7e abbd 8ee4 973c 8837 763d
00000350: 383e 233d 3239 0bbd 2182 993d eab7 c7bc
00000360: 8fa1 c7bd c706 503d b017 f23c 6cf4 10bd
00000370: 42be b23d e21a 1dbd dc2a 67bd c5bb 57bd
00000380: f692 ea3b e069 b9bd 8be5 dd3d 2a5b fc3d
00000390: 07df f7bd 3bd0 8a3d 7658 4bbc 392d 3ebb
000003a0: fbea 9b3d 5e40 c6bd 6029 dcbd 7f04 743c
000003b0: 5ebd 9bbd 5ed3 5bbc 29e4 dfbc 50ff 94bc
000003c0: ba2c 8b3d 2d7a 0f3d 5b78 1dbd 7359 babd
000003d0: de36 9ebd 7e38 a53b 3339 0bbc 5c9f ddbd
000003e0: 8f9f f5bd 32ee f7bd 6b36 32be 8be6 2dbe
000003f0: 2317 c8bd 0433 efb9 e4a1 3fbd e0e3 8bbd

main.4.bias f4 [64]
0.092140295 -0.043948084 -0.06311292 -0.06625677 0.033707835 0.07124184 -0.07089421 0.074620254
0.05023838 0.025935141 -0.007048909 0.02069263 0.058207095 -0.0069635045 -0.07282887 -0.029430091
-0.026717216 -0.051836293 0.033778798 0.08873946 -0.037910946 -0.03575847 0.004158457 0.021150732
-0.003284691 0.045910552 0.09597402 -0.08534006 -0.059931736 -0.010140463 0.04581061 0.043890815
0.058873415 -0.08361604 -0.14960757 0.042471297 0.08015451 -0.014066697 0.12730394 -0.08713894
0.04284274 0.14378573 -0.08843729 -0.1020943 -0.05729643 -0.0305157 -0.012003291 -0.09463872
-0.06465758 -0.08797483 0.05794263 0.0802736 -0.09370597 -0.00039268917 -0.0025592754 -0.07002443
0.039464742 0.0615777 -0.03372065 0.04111877 0.0058256662 -0.016856957 -0.029868722 0.078967094
00000000: 0db4 bc3d e802 34bd 5941 81bd a1b1 87bd
00000010: 3a11 0a3d 3ee7 913d fc30 91bd 81d2 983d
00000020: c2c6 4d3d ef75 d43c 89fa e6bb 9783 a93c
00000030: 906a 6e3d 1c2e e4bb 4d27 95bd 6017 f1bc
00000040: 10de dabc 4b52 54bd a35b 0a3d 09bd b53d
00000050: 8248 1bbd 7977 12bd aa43 883b 4d44 ad3c
00000060: f843 57bb b40c 3c3d 078e c43d c5c6 aebd
00000070: fb7a 75bd 2f24 26bc e8a3 3b3d dbc6 333d
00000080: 4025 713d e33e abbd ba32 19be 62f6 2d3d
00000090: 0c28 a43d 0178 66bc f75b 023e e775 b2bd
000000a0: de7b 2f3d 913c 133e 9c1e b5bd d116 d1bd
000000b0: a9af 6abd 10fc f9bc 74a9 44bc f2d1 c1bd
000000c0: 316b 84bd 262c b4bd 4055 6d3d 7c66 a43d
000000d0: eae8 bfbd d9e1 cdb9 84b9 27bb f868 8fbd
000000e0: c8a5 213d e638 7c3d aa1e 0abd 286c 283d
000000f0: 3be5 be3b 9a17 8abc 40af f4bc 80b9 a13d

output.0.weight f4 [1, 1024]
-0.07311293 0.024402175 0.31671286 -0.33375433 -0.22137886 0.009399473 0.21060133 -0.15654548
-0.26676545 -0.0043505174 0.15215763 0.13223681 -0.07378439 0.041688852 -0.032355316 -0.06794543
0.033220522 0.045561306 0.13405101 -0.24352814 0.12670447 0.27207506 -0.012318634 -0.092793494
0.0936726 0.2259388 -0.0779902 0.08533863 0.051761072 0.32709876 -0.04482476 0.037414953
-0.00513804 -0.1730008 -0.0184225 -0.13357645 -0.15897503 0.23064278 0.0006286705 0.06969449
-0.12952147 0.22081274 -0.11881482 -0.024257831 -0.15959616 -0.27852497 -0.09895951 -0.009771259
0.13397466 -0.07747167 0.13075346 0.26440474 0.106681116 -0.088402264 0.07686668 0.22893661
0.095854566 0.17535935 -0.09409075 0.09754085 0.25400245 -0.19908033 -0.101920456 0.28216338
0.028172418 0.26477155 -0.09328112 0.14452651 0.19804724 0.027609278 -0.24746436 -0.052530024
-0.029211482 -0.15705818 -0.15807806 -0.05005654 -0.44144592 -0.11198088 -0.02377245 -0.21152535
-0.09768086 -0.055625644 0.115612045 0.0025828597 0.099436074 0.3757994 -0.03017894 0.026591614
0.2049208 0.279815 -0.098120324 0.104443885 -0.011410651 0.26382202 -0.11134316 0.25411138
0.012459995 -0.20395155 0.03527392 0.07783688 0.11760898 -0.092864834 0.037992235 0.1605422
0.18056743 -0.12736633 -0.26942208 -0.1520334 0.051559985 0.033615276 0.25297144 0.06003183
0.05308174 0.02282877 -0.023375193 0.22903638 0.2538712 0.13829094 0.09288769 0.092981055
0.2207899 0.058713116 0.058033198 0.3816221 0.28992236 0.28212115 -0.12899622 0.20366131
0.15854779 -0.027760398 -0.080239035 0.11562852 -0.11795064 0.022054497 -0.07096998 -0.054031853
-0.1740601 0.015663229 -0.29413864 0.021407388 0.02265464 -0.11856964 -0.23996015 0.04098824
-0.10433102 -0.00665479 0.18495834 -0.06724971 -0.34490302 0.16320102 0.09092175 -0.08294072
-0.2542354 -0.010042919 -0.09963208 -0.0887736 0.09859052 -0.14811075 0.045845546 -0.2391608
-0.056352247 -0.10115293 0.051313445 -0.1984733 -0.1132744 -0.016716506 0.19701217 -0.1838601
0.2583569 -0.016763821 -0.11517153 0.06090634 -0.14303061 -0.10729709 0.09689136 -0.12182269
-0.1459246 -0.22612287 0.3169363 0.06332777 0.16653831 -0.21873505 0.13102247 0.0051137824
0.016156863 -0.046649355 0.052931868 0.18526381 0.2193179 0.1045572 0.119236365 -0.13223736
-0.072729446 -0.09155469 -0.06802568 0.057472125 -0.13222755 -0.020301262 -0.13937947 0.053733192
0.0900946 0.104305185 -0.119553596 0.22456886 0.13378982 -0.08052992 0.31414396 -0.1817342
0.039962657 -0.15030724 -0.042928223 -0.13003959 0.06278491 0.3179575 0.10380592 0.012290453
0.17849034 -0.048328962 -0.06461427 -0.2565993 0.20975444 0.011055357 0.14223744 0.29138142
-0.16852865 0.10390053 0.0911857 -0.079564124 -0.13390139 0.16671425 0.009725587 0.016146664
-0.17850937 0.059572052 -0.15423344 -0.10314437 -0.05067022 -0.11835635 0.028755853 -0.25129727
-0.00065646874 -0.10606063 -0.09634662 -0.20591733 -0.1494123 0.10649484 0.26182115 0.1477963
0.13394825 0.0655454 0.30014014 -0.03845069 0.13916132 0.18573172 -0.17809533 -0.0732858
00000000: 3bbc 95bd 12e7 c73c 3028 a23e d9e1 aabe
00000010: 24b1 62be 3f00 1a3c e0a7 573e 754d 20be
00000020: 7b95 88be c98e 8ebb 36cf 1b3e 1669 073e
00000030: 451c 97bd eec1 2a3d 0287 04bd f926 8bbd
00000040: 3e12 083d 7e9e 3a3d ab44 093e 715f 79be
00000050: d1be 013e 6c4d 8b3e 19d4 49bc 840a bebd
00000060: 6cd7 bf3d 805c 673e 53b9 9fbd 05c6 ae3d
00000070: 6b03 543d 7d79 a73e 2b9a 37bd 6c40 193d
00000080: 015d a8bb 1f27 31be c8ea 96bc 44c8 08be
00000090: 5aca 22be 9f2d 6c3e 5dcd 243a fcbb 8e3d
000000a0: 47a1 04be bc1c 623e 2f55 f3bd 5cb8 c6bc
000000b0: 2d6d 23be d39a 8ebe 49ab cabd a117 20bc
000000c0: a730 093e 78a9 9ebd 3ce4 053e 0f60 873e
000000d0: a17b da3d 3f0c b5bd 476c 9d3d 5c6e 6a3e
000000e0: 664f c43d 6791 333e a7b2 c0bd 7fc3 c73d
000000f0: 9c0c 823e b7db 4bbe acbb d0bd b877 903e
00000100: d8c9 e63c 2390 873e 2c0a bfbd c2fe 133e
00000110: e5cc 4a3e da2c e23c 4c67 7dbe b929 57bd
00000120: eb4c efbc dcd3 20be 37df 21be 1608 4dbd
00000130: 3305 e2be 3b56 e5bd 71be c2bc 1a9a 58be
00000140: e70c c8bd b7d7 63bd 02c6 ec3d 3245 293b
00000150: 24a5 cb3d c768 c03e d339 f7bc a8d6 d93c
00000160: c2d6 513e e943 8f3e 4ff3 c8bd ade6 d53d
00000170: bdf3 3abc ae13 873e e207 e4bd e31a 823e
00000180: 0225 4c3c add8 50be 637b 103d f168 9f3d
00000190: fadc f03d eb2f bebd bf9d 1b3d 2d65 243e
000001a0: abe6 383e 526c 02be b1f1 89be a5ae 1bbe
000001b0: 9030 533d 2cb0 093d 7985 813e f0e3 753d
000001c0: 3d6c 593d 6703 bb3c 557d bfbc 8388 6a3e
000001d0: 68fb 813e 249c 0d3e e73b be3d da6c be3d
000001e0: bf16 623e 2a7d 703d 38b4 6d3d f963 c33e
000001f0: b470 943e 2f72 903e 9617 04be 978c 503e
00000200: 5a5a 223e c669 e3bc 5d54 a4bd a5ce ec3d
00000210: 1b90 f1bd a2ab b43c b558 91bd 8150 5dbd
00000220: d03c 32be 2c50 803c 5799 96be 8c5e af3c
00000230: 3996 b93c a4d4 f2bd 1db8 75be 49e3 273d
00000240: 80ab d5bd 6d10 dabb b865 3d3e 37ba 89bd
00000250: 2197 b0be 2b1e 273e 2f35 ba3d d3dc a9bd
00000260: 242b 82be 0e8b 24bc e70b ccbd efce b5bd
00000270: d4e9 c93d 58aa 17be 8ac8 3b3d 92e6 74be
00000280: 9dd1 66bd 4429 cfbd 0c2e 523d 963c 4bbe
00000290: 69fc e7bd 0ef1 88bc 8fbd 493e d245 3cbe
000002a0: 5b47 843e 4854 89bc 0ddf ebbd ed78 793d
000002b0: 9e76 12be 94be dbbd fa6e c63d 2d7e f9bd
000002c0: 426d 15be c18c 67be 7a45 a23e fdb1 813d
000002d0: 0589 2a3e 15fc 5fbe c12a 063e 8491 a73b
000002e0: 665b 843c 6513 3fbd 16cf 583d ccb5 3d3e
000002f0: df94 603e 1622 d63d 3232 f43d 3b69 07be
00000300: 2df3 94bd 0681 bbbd 0c51 8bbd e467 6b3d
00000310: a966 07be d54e a6bc 7eb9 0ebe 5617 5c3d
00000320: 8583 b83d f59d d53d 84d8 f4bd 61f5 653e
00000330: 3300 093e dfec a4bd 7ad7 a03e 8818 3abe
00000340: e2af 233d 24ea 19be 81d5 2fbd 1929 05be
00000350: 6095 803d 53cb a23e 3398 d43d e55d 493c
00000360: 2cc6 363e 97f4 45bd 7d54 84bd fc60 83be
00000370: dec9 563e 8721 353c b1a6 113e f22f 953e
00000380: c692 2cbe cdc9 d43d 91bf ba3d 84f2 a2bd
00000390: 721d 09be 24b7 2a3e 1258 1f3c 0246 843c
000003a0: 29cb 36be d301 743d 5fef 1dbe 5b3d d3bd
000003b0: 948b 4fbd d064 f2bd 6591 eb3c 09aa 80be
000003c0: df16 2cba 5136 d9bd 6051 c5bd fedb 52be
000003d0: 8aff 18be f719 da3d 6c0d 863e ea57 173e
000003e0: bb29 093e ab3c 863d f8ab 993e 797e 1dbd
000003f0: 4e80 0e3e 7530 3e3e 9f5e 36be de16 96bd
